scripts/training_results/dubin_rarl_game/rarlgame/seed_42/10000000steps/model_latest.pt (torch, 284361 bytes, 60 tensors)

actor.pi_net.fcs.0.weight f4 [64, 6]
000000 e6 30 56 3e 45 4b d9 3d c6 47 09 bc 40 d9 88 3f
       0.20917091 0.1061006 -0.0083789285 1.06913
000010 05 28 e7 be 3a 20 bf bd 3e 88 25 bf 31 f0 b8 bc
       -0.4514772 -0.093323186 -0.64661014 -0.02257547
000020 be d7 5c be 38 ef 65 3e 32 f4 bf 3e cf fa 06 3f
       -0.21566674 0.22454536 0.37490994 0.52726454
000030 6a be d5 3d dd 46 1a be 5b e1 7e 3c 9c c0 83 be
       0.10436709 -0.15066095 0.015556659 -0.25732887
000040 d0 2b f8 3e 5a 2a 3a be 21 3c 53 be f9 25 0e bf
       0.48470926 -0.18180218 -0.20628406 -0.5552669
000050 38 4d 35 bd cd fb db be 74 ae 23 3f 37 b8 a9 3e
       -0.044263095 -0.42965546 0.6393807 0.33148357
000060 b4 57 52 3f ec 6c 42 3f d6 b3 24 bb fc 03 4e bf
       0.82165074 0.7594745 -0.0025131605 -0.8047483
000070 40 6b 80 be 6f 96 27 3f 3e d1 01 3f a4 5c 64 bf
       -0.25081825 0.6546392 0.50709903 -0.8920386
000080 d1 7f 77 be 4f 0b 42 3e 4f e1 07 3f 7c 48 e4 be
       -0.24169852 0.18949626 0.5307817 -0.4458655
000090 ea bb 6e 3c c4 e0 b6 3e 9b 65 81 3e 5d 95 dd 3e
       0.014571169 0.35718358 0.2527283 0.43278018
0000a0 6e 3b 9b bd e1 6d 09 bf 3b ef 36 bf a0 fc 9e bd
       -0.07579695 -0.53683287 -0.71458787 -0.07763028
0000b0 da 47 48 3e 63 ff 55 3f ce 2c 04 bc f4 da c4 3d
       0.19558659 0.83592814 -0.008067323 0.096120745
0000c0 d1 e4 44 bf d6 09 81 be b5 6a af 3b fd 7a 2a bf
       -0.76911646 -0.25202817 0.0053532966 -0.66593915
0000d0 b7 ef 91 3e 22 4c 05 3f 08 26 5e 3e 70 82 bc bd
       0.285032 0.52069294 0.21694195 -0.092045665
0000e0 c0 63 c8 bd 68 d9 b1 3e 75 dc 0c be 72 21 81 3e
       -0.09784651 0.3473618 -0.13755973 0.2522083
0000f0 00 51 34 3f 9c 6e 30 3f c6 d2 ff bc 33 ba 71 be
       0.70436096 0.68918777 -0.031228434 -0.23606186
000100 c7 3d 5f bf fd 24 7d 3e 22 c3 f3 3e bb 70 34 3e
       -0.8720364 0.24721141 0.47609812 0.17621128
000110 b8 e1 f8 bd db 56 46 bf 07 1e 94 be f2 1c 4e 3a
       -0.121524274 -0.7747628 -0.2892916 0.00078625896
000120 fb ef 03 3f 23 42 06 3e 7c 37 9c bd 57 9c 71 bf
       0.51538056 0.13111167 -0.0762777 -0.9437918
000130 cc bb 18 3e 69 3c 30 be 13 fa 15 bf e2 ee ba bd
       0.14915389 -0.17210545 -0.5858471 -0.091275945
000140 03 12 ba 3e d5 ca c2 3e 18 e0 6f 3d ef 50 96 be
       0.36341867 0.38045374 0.05856332 -0.29358622
000150 79 39 6a 3e 9f be 56 bf 2d 30 20 bf 33 89 ec bc
       0.22873487 -0.83884615 -0.6257351 -0.028874015
000160 cc 5a 23 3e 61 88 85 be aa 94 b8 3d 3e eb 9c 3e
       0.15952605 -0.2608061 0.090127304 0.30648226
000170 ce 4c b1 bb 0a aa 3f 3f ca 4b ab be c0 5d a0 3e
       -0.005410767 0.74868834 -0.3345626 0.31321526
000180 a5 59 17 3f 1e f5 a7 be 97 3b 8f 3d cb ad fb be
       0.5912116 -0.32804197 0.06993788 -0.4915603
000190 5e a8 da 3c dd b1 4b be f2 3e af be 8d 0d 4a 3f
       0.026691612 -0.19892068 -0.3422771 0.78926927
0001a0 fc aa 9b 3d 20 73 98 3c 0d 29 3d bf b0 50 8d 3e
       0.07600972 0.018609583 -0.73890764 0.27600622
0001b0 57 8f e5 be 86 e2 01 3c 7f 92 6a 3f 4f 8e 1b 3e
       -0.44835922 0.007927543 0.91629785 0.15191005
0001c0 0c ba 1c 3f e9 35 30 bf b2 51 cd 3e 01 aa 1f 3e
       0.61221385 -0.6883226 0.4010139 0.15592195
0001d0 7e 52 c2 bd 7c bd 33 bf 7f 60 57 3e a2 f4 97 be
       -0.094883904 -0.70211005 0.21032904 -0.29678828
0001e0 f0 c2 c1 be 2b cb 8f be e9 dd 09 bf de f3 e0 bb
       -0.37844038 -0.28084692 -0.53854233 -0.0068650087
0001f0 11 da fa be 76 ba 41 3f 65 ae 2c be 02 bf 9a 3e
       -0.48994496 0.7567514 -0.16863401 0.30223852
000200 3b 9f 2e be 0c 36 09 bf 8e de 51 bf e3 96 1b bf
       -0.17052929 -0.53598094 -0.81980217 -0.6077711
000210 df 8b 55 3e 89 f8 b0 bd d7 84 fe bb ad fc 08 bf
       0.20854138 -0.08641154 -0.0077673006 -0.5351055
000220 dc de d9 bd 3c 02 42 bd 1e 56 65 be 5b be 04 be
       -0.1063821 -0.047365412 -0.22396132 -0.1296324
000230 eb f4 96 3c 41 9d 40 3f 90 2a 8c be 58 8c 21 3e
       0.018427333 0.7523995 -0.27376223 0.15776193
000240 fd b4 ab 3a 8a 8f 79 be 05 f9 f4 3a 8f 10 eb 3e
       0.0013100203 -0.24371162 0.0018689936 0.4591107
000250 7c d3 bb 3e f8 8e 8f be bc 55 ce bb 81 58 1e 3d
       0.36684787 -0.28038764 -0.0062968414 0.038658623
000260 aa 37 bd bb 6d 8e 83 3b 3b 81 aa bd af 6c 52 bb
       -0.005774458 0.004014781 -0.0832543 -0.0032108238
000270 c3 5b e9 be 7f 6a 89 3e ba c5 11 bf 5c 03 2b 3f
       -0.4557782 0.26839063 -0.5694233 0.66802
000280 eb af c9 3e 21 f2 80 3d 94 41 af 3e 04 b0 b3 be
       0.39392027 0.062961824 0.3422972 -0.35095227
000290 10 ab 80 3d b8 e3 00 bf 9d a7 ec 3e a6 4b 43 bd
       0.062826276 -0.5034747 0.4622163 -0.047679566
0002a0 67 2a 71 be db 38 bc be f7 41 ae 3e 43 8b d3 be
       -0.23551331 -0.36762127 0.34034702 -0.41317186
0002b0 e6 d4 10 3f a9 14 ef bd c9 80 36 3f ad 02 cc be
       0.5657486 -0.116738625 0.7129026 -0.3984579
0002c0 78 f5 58 3c 93 b3 4a bf 7c a9 31 3f 59 33 2d 3f
       0.013242118 -0.7918026 0.6939924 0.67656475
0002d0 77 88 ef 3e 81 be ad be 96 c2 09 bd 6a 08 89 be
       0.46783802 -0.33934405 -0.033632837 -0.26764232
0002e0 6b 45 e8 3e ae 55 58 be a1 94 69 be a2 9a e4 3d
       0.45365462 -0.21126434 -0.22810604 0.11162306
0002f0 85 ec 11 bc 96 fb 45 3f 1d b2 c8 3e c8 d6 b4 be
       -0.008906488 0.77337015 0.3919839 -0.35320115
000300 f4 17 94 3e f6 5e 44 bf 3b bf 5c 3e 87 49 7f 3e
       0.28924525 -0.767074 0.21557324 0.24930392
000310 1d 17 70 3f 79 3d 4d 3f c0 91 33 be 25 9e e0 3e
       0.9378527 0.80171925 -0.17536068 0.43870655
000320 ed ef 0c 3e cf 0d 0b 3f 68 0d f5 be 78 d6 0d 3f
       0.137634 0.54317945 -0.4786179 0.5540538
000330 cc be da 3e 4d 4a 80 3d ca 3f c5 3c a8 6a 7d bf
       0.4272369 0.06264172 0.024078269 -0.9899087
000340 4a 9a 0f bf 39 54 ae 3e 05 3a 0c bf 5e 45 5f 3e
       -0.560948 0.34048632 -0.5477603 0.21803805
000350 bf 4f a2 be ba ca 22 3f a5 0e 20 be e6 bf 0b 3f
       -0.31701466 0.63590586 -0.15630586 0.5458969
000360 a6 72 f9 be 8e 77 55 bf 98 e5 5e be e5 fb 06 3f
       -0.48720282 -0.8338555 -0.2176727 0.5272811
000370 e5 48 44 3f c3 22 6d be b6 dc 82 be 44 b5 4d 3f
       0.7667373 -0.23157792 -0.25559014 0.80354714
000380 99 ce 88 bc b6 0f 25 be d6 58 7b bf 1c d6 26 bf
       -0.016700076 -0.16119274 -0.9818243 -0.65170455
000390 8e b9 e5 3e 4a 96 c7 3e 2a d6 5f bd fd ce c5 3e
       0.4486813 0.3898185 -0.054647602 0.38634482
0003a0 df 54 fb be 99 51 c1 be c9 d3 0e bf 5a 91 c1 be
       -0.4908819 -0.37757567 -0.5579191 -0.37806207
0003b0 ec 39 55 bd da c1 db 3e 45 66 44 3f d7 3c a5 be
       -0.05205719 0.42921335 0.7671855 -0.3227298
0003c0 42 00 1b bf c7 16 52 3e 70 df d0 3c 9d ce 0c 3e
       -0.6054727 0.20516501 0.025497168 0.13750692
0003d0 dc dc 29 bf 8e b4 06 bf b5 cc 67 3e ce 5b 1f bf
       -0.6635263 -0.52619255 0.22636683 -0.6224946
0003e0 30 f6 b4 3b 9f b3 88 be 81 b6 37 3f 27 33 30 bd
       0.005522512 -0.2669954 0.71762854 -0.043017533
0003f0 d4 63 7e bd 5a 5a cc 3d f9 f1 32 3f d7 10 22 be
       -0.062106922 0.09978171 0.6990047 -0.15826736

actor.pi_net.fcs.0.bias f4 [64]
000000 c4 6f 2e 3f 2c d6 01 3f d8 62 6e be b9 1f 41 3e
       0.6813929 0.50717425 -0.23279893 0.18859757
000010 3d c6 4b 3f d8 51 c1 be bb 1e 19 3d 21 15 e2 3c
       0.7959936 -0.37757754 0.037382822 0.027597966
000020 f9 50 a4 3e 10 a0 15 bf a2 8b cd be 39 1f 74 be
       0.32093027 -0.5844736 -0.40145594 -0.23840035
000030 89 7b 24 be f5 91 97 bd 7d 1a ad 3d c2 c8 24 bf
       -0.1606275 -0.07400886 0.08452318 -0.6436883
000040 ff a7 53 be 0f f5 30 3f 92 bb 83 be e6 14 bc be
       -0.20669554 0.6912393 -0.25729042 -0.36734694
000050 9f e6 29 be f8 e7 3d b9 eb c8 aa bd 24 64 a1 3e
       -0.16591881 -0.0001811086 -0.08339103 0.31521714
000060 97 0f 0c 3e 01 4c 5b b9 14 06 11 bf bc a1 fe bd
       0.13677822 -0.00020913781 -0.566499 -0.12433192
000070 21 64 0d 3f 4e c4 22 bf 30 8a 4a be de aa 3d 3e
       0.5523091 -0.6358079 -0.19779277 0.18522212
000080 d8 73 9f 3d 4e 6f 0a bf 89 30 7b be 57 4e ce 3e
       0.07785767 -0.5407609 -0.24530233 0.40294144
000090 14 bd 08 3e 29 e9 15 3d 32 cf 14 be dc 10 7d 3e
       0.13353378 0.036599312 -0.14532164 0.24713463
0000a0 13 e0 bd 3e f3 06 ea 3c 76 87 09 be d4 77 06 be
       0.37085018 0.028567767 -0.1343058 -0.13131648
0000b0 54 69 c4 3e cb 73 1e bf c1 54 98 be 2b f5 92 be
       0.3836161 -0.61895436 -0.29752162 -0.28702673
0000c0 6e ef 74 be c8 87 e1 be d6 52 45 be 9f b9 81 3d
       -0.2391946 -0.44048905 -0.1926988 0.063342325
0000d0 99 d9 0f be c3 53 db bd 9c 0e 25 be b9 37 50 be
       -0.1404785 -0.10709336 -0.16118854 -0.20333757
0000e0 b9 7d 4f 3e 92 3a 17 bd 3e cd a9 3d 1e e7 c2 3b
       0.20262803 -0.03692109 0.082911 0.0059479615
0000f0 15 77 04 bf c7 d2 f2 3c 92 47 59 be b2 76 ed 3e
       -0.51744205 0.029641522 -0.21218708 0.4637962

actor.pi_net.fcs.1.weight f4 [64, 64]
000000 ca f1 d3 3d bd 83 65 3b 60 ad e4 3c 16 f3 86 3a
       0.10348852 0.003502115 0.027914703 0.0010295834
000010 a9 fb 5f 3b ec e3 6d 3d a2 36 ea 3c 68 25 56 bc
       0.00341771 0.05807869 0.028590504 -0.013070442
000020 c7 ef ba bc 1f e0 7b 3d 2c 75 5f bd 6b 54 77 bd
       -0.022819413 0.061493035 -0.054555103 -0.06038324
000030 64 47 0e 3e fa 1a 84 3d 2c 55 19 bd d4 39 20 3d
       0.13894421 0.06450458 -0.03743474 0.03911765
000040 fe 7d 86 3d cd 13 74 bc ee ad 6d 3d 3e 43 47 bd
       0.06567 -0.014897299 0.0580272 -0.04864811
000050 5e da 29 3c fe 23 ec bc 2f bf 52 bd 91 fc 80 bd
       0.010367004 -0.028825756 -0.051451858 -0.06298173
000060 3c d9 f4 bd e5 45 60 bb 98 35 05 3d 6a c5 36 bc
       -0.11955497 -0.0034221348 0.032521814 -0.011155466
000070 0c d4 81 3d 9e 43 37 3d c7 5b df bc a2 27 e5 bc
       0.06339273 0.04474222 -0.027265443 -0.027973
000080 43 87 d9 3c 57 74 9a 3c 2f ad bc bd 86 ab 3f 3d
       0.026553756 0.018854303 -0.0921272 0.046794437
000090 4c 6c e6 3c a9 0d ff 3c 21 80 d2 bc 5d 8e 19 39
       0.028127812 0.031134443 -0.025695862 0.00014644251
0000a0 ba 19 f0 3d 3a f2 2e bd 1f 68 62 bd 44 0d 5d 3d
       0.11723657 -0.042711474 -0.05527508 0.05396773
0000b0 58 fd 84 3d 62 60 6b bd 0e 4b f3 3c 55 ba 1c bc
       0.06493634 -0.057464965 0.029698875 -0.009565909
0000c0 0f 72 8b bd 8b 8f ee bc f3 2d 35 3b 86 d2 79 bd
       -0.06808864 -0.029121181 0.0027645796 -0.060991786
0000d0 75 7b 0e 3e 2a 92 26 bd 32 01 59 bc 9d 99 d7 3c
       0.13914283 -0.040666737 -0.013244914 0.026318366
0000e0 89 07 37 3d 9d d4 c2 3c bb c0 00 3d 46 8d a4 bd
       0.04468492 0.023783023 0.031433802 -0.08034758
0000f0 f7 dd 43 3c dc d8 5f 3d a9 5b 23 3d a5 d5 33 bd
       0.011954776 0.054650173 0.039882336 -0.04390492
000100 9e 78 03 bd fa 19 5a 3c e4 08 57 3d 43 01 d8 bd
       -0.03209745 0.013311857 0.052498713 -0.10547116
000110 bc b2 49 3d 6f 14 89 bd 45 5a f9 bd ce c6 1c 3d
       0.04924272 -0.066933505 -0.12175421 0.038275532
000120 02 03 af bc 88 6c 66 3d 6f c9 0f 3c ec b0 58 bd
       -0.021363739 0.056255847 0.008776053 -0.0529031
000130 78 70 3c bd ea 65 d3 3c 02 f5 aa bd b6 87 15 3d
       -0.046005696 0.025805432 -0.08347513 0.036506377
000140 96 47 d4 3d 1a 4b 91 3d ae f2 28 bd 22 b4 da bb
       0.103652164 0.070944026 -0.041247062 -0.0066743055
000150 9c a6 9d bd 55 13 15 3d eb 63 13 3d 59 b1 86 3c
       -0.07697794 0.03639539 0.03598396 0.016441988
000160 13 19 2b bc 00 8f 8f bd 6a 2b 9f 3d 89 3f e2 bc
       -0.01044299 -0.07009697 0.077719525 -0.027618187
000170 4c 3c 64 bd 38 d5 46 3d d8 e1 a5 3d 32 4b 9a 3d
       -0.055721566 0.048543185 0.08099717 0.075338736
000180 7b cc e0 3b 16 98 b2 bd e9 54 5d 3d cf 07 c5 3d
       0.0068603135 -0.08720414 0.054036055 0.0962063
000190 c5 a8 05 3d 13 70 ac 3d 69 1d ed bc 03 0a 87 bd
       0.032631654 0.08419814 -0.028944688 -0.065937065
0001a0 00 20 05 3d 42 21 b4 3c bf cc 00 3d f0 ae 78 3c
       0.03250122 0.021988515 0.03144526 0.015178427
0001b0 27 d8 12 bc a8 c4 08 3c c2 af 89 3d d0 65 81 3d
       -0.008962668 0.008347668 0.06722976 0.06318247
0001c0 19 a4 8b 3d 86 fa 42 3c 0d a3 9e 3d e5 ee cd 3d
       0.068184085 0.01190055 0.07745943 0.10055331
0001d0 ea 14 b3 bd b5 ef d3 3d 6f 93 4f 3d db 00 2e 3d
       -0.087442234 0.10348455 0.050677713 0.042481285
0001e0 5a 06 bd bd 26 59 1b bd 70 52 24 3b 31 50 35 bc
       -0.09229727 -0.037926815 0.002507355 -0.011066482
0001f0 a9 6e 1c bd 51 b5 69 bb d7 c7 85 3c b1 1f 5f 3d
       -0.03819147 -0.0035661052 0.016330643 0.054473583
000200 4b a4 27 bc 30 47 32 bc 4a 81 62 bd 66 9d 3c 3d
       -0.010232042 -0.01088123 -0.05529908 0.046048544
000210 73 eb 42 3c d1 a3 eb 3c e4 1a d0 3d dd ae 9c bb
       0.011896956 0.028764637 0.10161379 -0.0047815875
000220 cb 6e a8 3d 30 b2 55 3d f8 13 d2 3c 59 1c 1c be
       0.08224257 0.052171886 0.025644287 -0.15245189
000230 d9 33 be bb 56 3c 55 bd 29 f6 ac 3c 30 46 89 bc
       -0.0058045206 -0.052059494 0.021113472 -0.0167571
000240 80 fd 11 3d 94 07 5c bc 26 97 d5 3c 01 6d 45 3d
       0.035642147 -0.013429541 0.02607305 0.048199657
000250 f7 ba e9 3c 41 16 a6 3d 6e aa 03 be 74 ee d9 bd
       0.028531535 0.08109713 -0.12857983 -0.106411844
000260 a3 b1 06 bc 9a 39 05 bc 32 f6 39 bd a2 0e 8b 3d
       -0.008221063 -0.008131409 -0.045400806 0.067899
000270 e2 06 95 bc af b1 78 3d e5 8d a4 bd 6d 2c 8f 3d
       -0.018191759 0.060716327 -0.08034877 0.069908954
000280 13 0b 2e 3d e1 e4 b6 bd 49 5b ad bd 04 d6 3c 3c
       0.04249103 -0.08930374 -0.08464677 0.011525635
000290 bf ff 9d 3c 46 b6 ce bc 1c fb 05 3e 23 66 8b bd
       0.019286988 -0.0252334 0.13084072 -0.068065904
0002a0 bf 53 0c 3e e9 af 86 3d 12 d8 61 3c 2b 2a e2 3d
       0.13703822 0.06576521 0.013784425 0.11043199
0002b0 48 2f a1 bb 34 e3 f5 bb ca 1a 65 bc b2 1c a8 3d
       -0.0049189664 -0.0075038914 -0.013983438 0.08208598
0002c0 36 43 18 bd bf 64 c8 bc e6 98 1f 3d 4f 64 14 be
       -0.037173472 -0.024462102 0.038964175 -0.1449139
0002d0 cb 8d 1c 3d fe e7 95 bc 4a b1 07 3c 13 0b af 39
       0.03822116 -0.018299099 0.008282015 0.00033386852
0002e0 0f b2 38 3d 77 22 dc 3d d6 0e 4c 3c a9 92 31 3d
       0.045091685 0.10748761 0.012454709 0.043352757
0002f0 c0 9d da 3d bb 34 57 bd df e8 79 3b db 38 3e 3d
       0.1067462 -0.052540522 0.0038133187 0.04644094
000300 03 3c 59 bc 34 38 b2 3d 56 66 c4 3c 7c a3 aa bb
       -0.013258937 0.08702126 0.023974579 -0.005207477
000310 f8 09 81 bc 40 42 3d bd 03 9c bc bd 23 81 b5 3c
       -0.015751824 -0.04620576 -0.092094444 0.022156304
000320 fd 54 bb bd c5 b0 a4 bd bb 32 2d 3d 0d 85 0e bc
       -0.091470696 -0.080415286 0.04228471 -0.008698714
000330 5f 90 a8 bc 6f 86 4d 3d c0 59 b7 bc 66 b8 00 3e
       -0.020576654 0.050177034 -0.022381663 0.12570342
000340 c8 7d a7 3c b5 c2 78 3d 10 c9 fe bc 54 da 96 3d
       0.02044572 0.060732562 -0.031101733 0.073658615
000350 22 08 bf bc a1 d0 8d 3c d5 49 c6 bd 69 43 4f 3d
       -0.023319308 0.017311396 -0.09682051 0.050601397
000360 3c 4c 5e bd 81 70 d9 bd 09 ef 26 bd b6 17 8e 3d
       -0.05427192 -0.106171615 -0.040755305 0.06938116
000370 52 d4 48 bd fb 26 06 3c 8a 2d 90 bd 57 5f 71 bd
       -0.04903061 0.008188005 -0.07039936 -0.058928814
000380 3b b5 79 3d 14 15 37 3b aa 2d 94 bd 1e fa 76 bd
       0.06096385 0.0027936148 -0.07235272 -0.060297124
000390 80 03 fa bc 08 ba dc 3b 68 9d b3 bc a6 07 ac 3c
       -0.030519247 0.006736044 -0.021925643 0.02099974
0003a0 76 18 df 3c 0b 48 10 be 86 44 b5 3c 04 3e fe 3b
       0.027233344 -0.14089982 0.022127401 0.0077588577
0003b0 12 af 06 bd 42 b3 a7 3d c7 44 09 3d 15 91 70 bd
       -0.032881804 0.081884876 0.033512857 -0.05873211
0003c0 df 28 84 bc 15 3e e5 bd cd d0 53 3d a3 60 e1 3c
       -0.01613277 -0.11193482 0.0517128 0.0275119
0003d0 67 1c 1f bc d2 39 7e bc 70 ef 6e bb 4c 8d 82 3d
       -0.0097113615 -0.015516715 -0.0036458634 0.063746065
0003e0 c9 e4 2f bc c9 81 8b 3b f2 5c 27 3d c7 af 08 be
       -0.010735699 0.004257415 0.040860124 -0.13348304
0003f0 ef 94 94 3c ba 25 65 bd af 55 e6 bc ff 87 bd 3d
       0.018137423 -0.055944182 -0.028117029 0.09254455

actor.pi_net.fcs.1.bias f4 [64]
000000 d0 6b 1d bd 61 2f ac 3d 94 21 08 3c d0 89 e9 39
       -0.038432896 0.08407474 0.008308787 0.00044543901
000010 f2 0a 66 bd 28 e9 08 3d 30 1e fa 3c c4 67 75 3c
       -0.056162782 0.03342548 0.030531973 0.014978353
000020 d3 15 f7 3b 41 73 79 bd b4 e9 d6 39 00 10 57 ba
       0.0075404434 -0.06090093 0.00040991383 -0.00082039833
000030 9e 1c 3a bd bb 6a 92 bd 2c 11 84 bc 7f 3f b1 3c
       -0.045437448 -0.071492635 -0.01612147 0.021636723
000040 8b cd 04 bd 06 d4 a2 bc a4 fd 37 3d 7e 85 8e be
       -0.032422584 -0.019876491 0.044919625 -0.2783622
000050 e8 fe 7c 3d 9f 8b f0 bd a9 c8 88 be 5a 5a 18 bd
       0.061766535 -0.117453806 -0.26715592 -0.03719554
000060 cd 73 88 3d 1c 04 0b bd 6f 4f a4 3b 10 85 90 3c
       0.06662712 -0.033939466 0.005014352 0.017641574
000070 13 4b b6 3c 2d 49 8e 3d fb 66 e8 bb fa 1f 4e 3c
       0.022252595 0.06947551 -0.0070923544 0.012580866
000080 a5 db 51 bb 80 17 14 bd b7 3c 80 3c 8e a1 00 3c
       -0.0032021787 -0.036155224 0.015653951 0.007851018
000090 1d e1 b6 3b f9 76 20 3d 2b ef 60 bc c4 0c f6 bc
       0.005581035 0.03917596 -0.013728897 -0.030035384
0000a0 07 46 cc 3e 06 ab 76 3d c9 e2 1c bd 81 2c 3a bc
       0.39897177 0.060221694 -0.038302217 -0.01136315
0000b0 d8 f2 4a be 89 66 a6 3b 99 11 f7 3a 93 5a 93 bc
       -0.198192 0.005078141 0.0018849849 -0.017987525
0000c0 e4 17 a9 bc 46 16 9d be 30 cd 13 bd ad 42 42 3e
       -0.020641275 -0.30681056 -0.036084354 0.18970747
0000d0 e2 f8 9a 3d f3 a3 1b 3d 2a 87 59 3d 54 5a 79 3c
       0.07567002 0.03799815 0.053107418 0.01521929
0000e0 e7 9e 81 3d 38 54 5e be d2 b3 63 bd d7 52 05 3f
       0.06329136 -0.21711814 -0.055591412 0.5207953
0000f0 ef 8d 38 3d fe 7c 06 3d 69 45 c8 3e a6 13 ff bc
       0.045057233 0.032834046 0.39115456 -0.031137299

actor.pi_net.fcs.2.weight f4 [1, 64]
000000 51 15 82 39 44 c1 a6 3a 67 25 18 3a 7d 64 89 3a
       0.00024811414 0.0012722393 0.0005803913 0.0010482218
000010 9f 41 54 39 b1 51 74 ba 78 53 a4 b9 fc ef 8f 3a
       0.00020242341 -0.00093200343 -0.00031342707 0.0010981555
000020 2c 7a e1 b8 1c ee 35 bb c5 7a d1 3a 71 b2 91 3a
       -0.00010751592 -0.0027760332 0.0015982023 0.0011115802
000030 49 4c aa 3a 27 50 59 3e 6a 6d 59 b9 33 bd 9e 39
       0.0012992705 0.21221982 -0.00020735493 0.00030277073
000040 97 9d b3 3a 3b 42 0c 3a 6a 24 a2 b9 82 70 0d 3e
       0.0013703582 0.0005350445 -0.00030926178 0.1381245
000050 f5 54 1a 3a 6c 38 51 3e c6 c7 d6 3d b4 d0 b0 39
       0.00058872934 0.2043168 0.104873225 0.00033724832
000060 a3 77 60 be 2f fc ee 39 66 86 30 3a 09 94 e4 39
       -0.21920638 0.0004558279 0.0006733894 0.00043597844
000070 6e 0d 9c 3a f1 f6 d2 39 b2 68 66 3a 9b 00 91 39
       0.0011905858 0.00040238307 0.00087894045 0.00027657006
000080 d4 fb 41 ba eb 89 fe ba 5f 18 0b 3a 6b 79 a2 ba
       -0.0007399891 -0.0019419765 0.0005306061 -0.0012395805
000090 fa 97 16 39 21 09 61 ba fe b1 a9 39 df 02 9f 37
       0.0001436173 -0.0008584429 0.00032366806 1.8955614e-05
0000a0 0d a0 af 3e 6e 4a b8 3a 1e 68 d1 39 0c 96 dd ba
       0.34301797 0.0014060268 0.0003994116 -0.0016905679
0000b0 53 da e2 3e 8b b3 19 ba bf 8b ef 39 4d 48 ce 39
       0.44307193 -0.0005863241 0.0004568975 0.0003934525
0000c0 87 92 00 bb 7f 86 d7 be d2 03 2d bb 22 67 2c 3e
       -0.0019618587 -0.420948 -0.0026399982 0.16836217
0000d0 34 fc 00 ba 0e c2 03 3a 08 2b de 3a 96 8b 1c 3a
       -0.00049203937 0.000502617 0.001695008 0.00059717277
0000e0 f2 66 07 ba aa 0c 44 be 85 79 16 bb b2 04 c6 be
       -0.00051651814 -0.19145456 -0.0022960615 -0.38675457
0000f0 48 77 b4 b9 c4 1b 23 3a 91 89 ac be 97 54 91 ba
       -0.00034421147 0.0006222094 -0.33698705 -0.0011087832

critic.v_net.fcs.0.weight f4 [64, 6]
000000 3e f1 59 3f 31 e7 35 40 f0 10 c4 bf a8 19 57 3e
       0.8513373 2.8422358 -1.5317669 0.21005881
000010 1b 86 e2 bf 12 57 ad 3f 45 fa c5 3f dc c4 5e bf
       -1.7697176 1.3542197 1.5467001 -0.87019134
000020 9c a5 78 3c 20 00 b2 bf 94 2a 06 40 d6 64 9d bf
       0.015176203 -1.3906288 2.0963488 -1.2296398
000030 7e c7 a1 bf 6c 36 48 40 9c da 58 bc 8e 6b ea 3f
       -1.2639005 3.1283216 -0.013235714 1.8314073
000040 e0 a4 5f c0 13 f1 a9 bd 37 63 2d 40 e0 83 fc 3f
       -3.4944382 -0.082979344 2.7091806 1.9727745
000050 e9 5f 7b 3e eb 46 d0 bf 2a 11 5d 3e 2a fc 6f 3e
       0.24548306 -1.6271642 0.21588579 0.23436037
000060 00 68 36 40 05 4b 03 c0 aa 77 49 bd 94 96 3a c0
       2.8500977 -2.0514538 -0.049186386 -2.9154406
000070 99 36 2b 40 b5 0f a0 3d 1b 12 e3 be 38 22 c2 3e
       2.6752074 0.07815496 -0.4434975 0.37916732
000080 5f 85 09 40 42 5d e0 be 5c 6c 4f 3f e8 3c 1e be
       2.1487653 -0.4382115 0.8102472 -0.15452921
000090 30 28 ed 3f fa 35 89 40 2a 0e e2 bd 42 b0 f1 bf
       1.8527889 4.287839 -0.11037858 -1.8881915
0000a0 7c 83 76 c0 71 23 49 3e ab 5a 11 40 27 e3 db 3f
       -3.8517752 0.19642426 2.271159 1.7178696
0000b0 2e aa 3d be e7 21 bb bf 1d 9c 30 bf a5 bc 34 3f
       -0.1852195 -1.4619721 -0.6898821 0.7060035
0000c0 cb d9 a0 3f 06 68 68 40 14 c3 aa 3e d3 0e a3 bf
       1.2566465 3.631349 0.33351958 -1.2738899
0000d0 eb ed bf bf e7 83 0a 3f d7 02 2a 40 dd aa 3c 40
       -1.4994482 0.54107517 2.6564233 2.9479287
0000e0 96 84 2f 40 0b d2 4e bf 84 2c e2 3f a6 f3 52 be
       2.7424674 -0.8078925 1.7669835 -0.20600757
0000f0 69 0c 75 c0 96 c3 9f 3f 2a 37 73 3d 5d 3d 2d 40
       -3.8288825 1.2481563 0.05937878 2.7068703
000100 df ba b8 bf 5b 27 cc 3e 77 66 09 40 c5 95 ee bf
       -1.4432029 0.39873776 2.146879 -1.8639456
000110 9b bf 8e 3f 33 11 c6 bf 22 29 8c bf 45 c5 5b 3f
       1.1152223 -1.5473999 -1.0950053 0.85847884
000120 77 d5 7d bf 9b 53 73 c0 ab 0c 56 c0 7c 65 23 bf
       -0.99153847 -3.8019779 -3.3445232 -0.6382673
000130 75 b7 39 3d 1a 5d dc 3d 5d 68 85 bf 12 82 2e 40
       0.045340974 0.10759945 -1.0422474 2.7266889
000140 94 24 81 3e 16 d2 5b be 3b 8e 33 c0 2f 9e 8d 3f
       0.2522322 -0.2146686 -2.805556 1.1063899
000150 8f dc b5 bf 7b d7 fd bd ba b6 c3 3f 54 b8 0d 3f
       -1.4207934 -0.12394615 1.5290139 0.5535939
000160 74 09 e3 bf 5e e1 29 bf 81 9e 14 3d cf 38 28 40
       -1.773726 -0.6635951 0.036283974 2.6284673
000170 f7 f8 d3 3f 2c ba b9 bf 2f 36 2e bf 65 23 fc 3e
       1.6560353 -1.450994 -0.6805143 0.49245754
000180 ce c2 39 3e 01 cf 81 40 64 ca 55 40 00 b3 00 c0
       0.18140718 4.056519 3.340478 -2.0109253
000190 c8 34 b4 bf b4 89 ec bd 9a 9a cb 3f 36 48 b8 3f
       -1.4078608 -0.11549702 1.5906556 1.4397037
0001a0 05 9a 71 3b ed cc df bf 9b 2b b8 bf 13 f9 99 be
       0.0036865484 -1.7484413 -1.4388307 -0.3007284
0001b0 13 2b b8 be 6d ed e2 3f 36 3a bb 3f 42 e9 4a 3c
       -0.35970363 1.7728707 1.462714 0.012384715
0001c0 35 85 8e bf aa 18 6b 3e 57 5b ab bf 71 a2 ed bf
       -1.1134402 0.22958627 -1.338725 -1.8565198
0001d0 54 10 0c bd f5 0e 73 3e 40 2f c1 3f 59 c6 97 be
       -0.03419526 0.23736174 1.5092545 -0.29643515
0001e0 ee a5 d4 bf ad 8d 62 bf e5 ef 0b c0 d1 a0 c0 3f
       -1.6613138 -0.8849743 -2.186517 1.5049077
0001f0 25 50 0d 40 60 6a 0f be 1f a1 0d 40 d8 dd 1d c0
       2.2080166 -0.14005423 2.212959 -2.4666653
000200 78 6a 0a 3f b2 0f 44 c0 b7 57 b6 3f 95 f3 26 3f
       0.5406871 -3.063458 1.4245518 0.65215427
000210 f7 ba 33 c0 3c b2 60 bf c1 b8 09 3f 6b 00 b2 bf
       -2.8082864 -0.87771964 0.5379754 -1.3906378
000220 e8 37 bb bf 3a 7a 4a bf 5c 50 d2 3f b0 30 55 bf
       -1.4626436 -0.7909275 1.6430774 -0.83277416
000230 a0 d9 ce 3f e9 cc 05 40 e4 ab b4 bf ca b8 0f bf
       1.6160164 2.0906317 -1.4114957 -0.5614134
000240 c1 0d 86 bf e8 f3 64 3f 48 ce 04 40 cd 73 d6 bf
       -1.0472947 0.8943467 2.0750904 -1.675409
000250 d3 d1 36 c0 ac 33 64 bf d4 48 83 3f b9 d2 4a 40
       -2.8565567 -0.89141345 1.02566 3.1691115
000260 e0 cd 9c 3f 9c f6 fb bf ca c2 18 bf f0 b4 39 3e
       1.2250328 -1.9684634 -0.59672225 0.18135428
000270 63 9f 28 c0 72 fe 1d c0 00 16 e4 3d c7 a5 4b 40
       -2.6347282 -2.468655 0.11137009 3.1819932
000280 75 68 33 40 fc 5e df 3d 22 25 02 bf 3e d5 51 40
       2.8032506 0.10906789 -0.5083791 3.2786403
000290 ec b0 66 bf 06 fd 79 be e3 40 2c 40 4c d6 15 bd
       -0.9011371 -0.24412927 2.6914604 -0.036581323
0002a0 b7 c2 fb bf 0e 25 07 c0 69 d9 0f 3f dc c1 04 bf
       -1.9668797 -2.1116366 0.56191117 -0.51858306
0002b0 3f 57 39 40 a6 16 3e be 6c 07 26 c0 3f 2f ac 3f
       2.89595 -0.18563327 -2.594203 1.3451918
0002c0 6c ac 12 c0 30 1d 22 40 e2 de 90 3d a6 1f d3 3e
       -2.2917738 2.5330315 0.070737615 0.41235083
0002d0 6d c6 c8 3e bb 9f 2f c0 89 3f bb be a6 3f 3a 3f
       0.39213887 -2.7441242 -0.3657191 0.7275337
0002e0 d6 3b 68 40 48 0e 78 3f 56 06 37 40 68 89 ac be
       3.628652 0.9689679 2.8597617 -0.33698583
0002f0 5f 10 01 bf eb 12 29 40 a9 2a c5 3e 7a 0c 29 3e
       -0.50415605 2.6417797 0.3850911 0.16508666
000300 34 ff 2c c0 57 e7 3e 3f 81 ec 5f 40 2a 60 0f 40
       -2.7030764 0.74571747 3.49881 2.2402444
000310 4b 4d e7 be d9 52 18 bf d6 0d fd 3f 0b f5 c7 be
       -0.45176157 -0.59501415 1.9769847 -0.3905414
000320 9b 8b b8 3f 92 25 22 3f 10 45 a2 bf b9 2e 01 bf
       1.4417604 0.6333858 -1.2677326 -0.5046192
000330 76 53 f8 be 57 4d ef 3f b5 e5 c4 bf ca 26 aa 3f
       -0.48501176 1.8695477 -1.5382601 1.3293087
000340 fa b9 4b be bf 47 64 3f c3 11 27 40 20 d4 89 40
       -0.19895163 0.89171976 2.610459 4.307144
000350 c8 35 00 c0 d9 0c 13 3f a2 2d 2b 3f d3 ce 33 3f
       -2.0032825 0.5744148 0.66866505 0.70237464
000360 2f 3d 0e bf 30 02 e6 3f e6 3b cd 3d b1 d2 14 bf
       -0.5556211 1.7969418 0.1002119 -0.5813399
000370 19 9b 06 c0 9e fb c0 3f 19 92 93 3e 73 bc 51 40
       -2.1032164 1.5076787 0.288224 3.277127
000380 0f 50 6e 3d 27 a6 1c c0 2b 18 26 c0 71 b1 d3 3f
       0.05818182 -2.4476411 -2.595225 1.6538526
000390 38 35 45 c0 e9 cf e2 3f 9e 24 48 3f a5 86 f3 bc
       -3.0813732 1.7719699 0.78180873 -0.02972729
0003a0 da 33 ec 3e f8 6a 21 3f f9 92 40 3f d7 6c c5 be
       0.4613331 0.63053846 0.7522426 -0.385596
0003b0 93 3c 75 3f 00 f7 85 40 ed d6 1c 3e a8 41 88 3e
       0.95795554 4.1864014 0.15316363 0.26612592
0003c0 37 1e 0d bf 2a 4a 42 40 72 8f 9a be 99 0a ca 3f
       -0.5512423 3.0357766 -0.30187565 1.5784484
0003d0 5e 0c 2f 40 73 97 b3 be 42 8c cb bf 21 91 0d 40
       2.7351298 -0.35076484 -1.5902178 2.211983
0003e0 28 8f ba bf 17 f6 ba 3f 9f 23 9e bf cb 69 9c 3e
       -1.4574938 1.4606351 -1.2354621 0.30549464
0003f0 1d cf 0b bf ce 9b 91 bf e4 df 0c be 4c a8 33 c0
       -0.54612905 -1.1375673 -0.13757282 -2.807147

critic.v_net.fcs.0.bias f4 [64]
000000 a5 ed b2 bf 22 b5 b5 be 67 52 89 3f 97 68 eb bf
       -1.3978773 -0.35489756 1.0728272 -1.8391293
000010 ca 39 33 3f a9 fd dc bf 22 ba c3 bd a7 da 54 bf
       0.70010054 -1.7264911 -0.095569864 -0.83146137
000020 31 19 3b c0 06 b9 1e be 7d 3c c1 3f 95 e8 8b c0
       -2.9234126 -0.15500268 1.5096585 -4.3721414
000030 e6 fd 38 3e fa 0c 27 40 cd bf f2 be 72 14 0d 40
       0.18065605 2.610167 -0.47411957 2.204373
000040 d4 5b 4e bf 9b f5 c3 3f 62 b0 24 c0 f1 f5 2e 40
       -0.8060887 1.5309328 -2.5732656 2.733761
000050 b9 f8 5c c0 47 1b eb 3f 5b 8d c8 3f e3 30 4c 3f
       -3.4526808 1.8367699 1.5668138 0.79762095
000060 0a 3c c9 bf 38 7c fd 3f e2 a4 4b bf 0d e9 4f 40
       -1.5721447 1.9803534 -0.79548466 3.2485993
000070 ba 9d a4 3f 85 68 b3 bf ed d9 2a c0 4e 88 7d c0
       1.2860634 -1.4016272 -2.6695511 -3.9614444
000080 03 f3 99 bf 9f 27 11 c0 ff 3f 34 c0 e4 f8 60 bf
       -1.2027286 -2.2680433 -2.816406 -0.87879777
000090 7f c4 85 c0 1a 55 b5 3d 88 82 6a 40 2b fc 00 3f
       -4.1802363 0.088541225 3.664217 0.5038478
0000a0 12 51 8e bf b1 1e 65 40 9c 3e 2a 40 39 25 2c c0
       -1.1118491 3.5799983 2.6600714 -2.689772
0000b0 ad 99 d0 bf 66 56 ef be 62 bd 78 3e de f6 81 be
       -1.6296898 -0.46745604 0.24290994 -0.25383657
0000c0 5d 98 21 c0 1d e9 a4 3f 70 88 25 bf f3 ce 3b 40
       -2.5249245 1.288364 -0.6466131 2.9345062
0000d0 92 2a 31 c0 80 23 8f c0 fa a1 ce 3f a7 e4 d4 3f
       -2.7682233 -4.4730835 1.6143181 1.6632279
0000e0 0b d4 8e c0 5e 7b 6d c0 ac c3 39 bf 2e af 23 c0
       -4.463384 -3.7106547 -0.72564197 -2.5575671
0000f0 bf 9b 2c c0 fa cb a5 3f 9d e9 0c bf a6 7a a3 3f
       -2.697006 1.2952874 -0.55043966 1.2771804

critic.v_net.fcs.1.weight f4 [64, 64]
000000 e9 d7 4e bf 06 be 47 bf 6a cf 98 bd 12 30 2a c0
       -0.807982 -0.7802433 -0.07461436 -2.659184
000010 a4 c7 46 be b3 51 29 3f 5f 4c bd bf ff ce 51 bf
       -0.19412094 0.6614029 -1.4788932 -0.81956476
000020 2c 45 b9 be 83 db 38 3e e6 31 f4 3f 2a f5 ac 3f
       -0.36185586 0.18052487 1.9077728 1.3512318
000030 a4 dc 38 bf 1f 65 c0 3f 48 88 3a bd aa 71 d5 3f
       -0.7221167 1.503086 -0.045540124 1.6675313
000040 0a 8a 4a bf a1 55 8f 3f 50 df 66 bf c3 15 c4 3f
       -0.7911688 1.1198007 -0.901845 1.5319141
000050 19 c0 88 3f b7 4a 01 be bb f9 cc 3f 7e cd 9b be
       1.0683624 -0.12626158 1.6013712 -0.30430216
000060 ef 99 9e 3d 0a 7a 60 bf ee 22 cc 3f bc 1c 1a bf
       0.07744204 -0.87686217 1.594816 -0.60200095
000070 d0 29 53 be c3 7d bd 3f 18 17 eb 3e c0 c6 04 c0
       -0.20621419 1.4804004 0.45916057 -2.0746307
000080 30 36 51 3f 79 93 7a bf f0 5e 03 40 f5 ad 51 3f
       0.8172331 -0.97881275 2.0526695 0.8190606
000090 e7 dd 15 c0 e8 a3 ba 3f 49 28 49 3e 56 d6 89 bf
       -2.3416688 1.458127 0.19644274 -1.0768535
0000a0 48 c3 48 3f 35 19 92 bf de fe 31 3e 36 b7 f1 3e
       0.78422976 -1.1413943 0.1738238 0.4721009
0000b0 2a 5d 21 3f 58 ed be 3e 2d 70 85 bf 93 cb 48 be
       0.6303278 0.37290454 -1.0424858 -0.19608907
0000c0 34 f7 00 3e a2 ff c6 bf a6 f7 98 3b bc 8e 45 3f
       0.125943 -1.5546763 0.004668194 0.7717092
0000d0 8b 48 e9 3f 20 88 9e 3e f3 05 84 bf c5 74 03 3f
       1.8225263 0.3096323 -1.0314316 0.5135005
0000e0 e8 0c e0 be fa e3 2c 3f bc f0 bc 3f 65 03 47 bf
       -0.43759847 0.67535365 1.4760966 -0.77739555
0000f0 2e 55 99 be 04 50 d5 3f 6b 87 84 3f df e6 32 bf
       -0.299478 1.6665044 1.0353826 -0.6988353
000100 08 e6 8f bf 5d 21 63 be 6e 5e bc be af 60 a2 bd
       -1.1242075 -0.22180696 -0.36790794 -0.07928597
000110 2b 0b 75 c0 ab 62 a9 bf a7 cb 74 40 22 ab 1b 3e
       -3.8288066 -1.3233236 3.82493 0.15202
000120 e3 73 38 c0 e5 e1 08 bf 72 c5 37 c0 e5 11 9a bf
       -2.8820732 -0.5346969 -2.871426 -1.2036711
000130 be ba ec 3f 06 6a 91 bf 97 72 c2 3f b4 e4 10 bf
       1.8494489 -1.1360481 1.519122 -0.56598973
000140 e8 17 29 bf 94 8c c3 bf 94 05 9d bf 8d 51 82 bf
       -0.66052103 -1.5277276 -1.2267327 -1.0181137
000150 53 db a3 bf 9b 14 45 3f 0b 0f 3c 3e 20 ea 59 3f
       -1.2801307 0.76984566 0.18365113 0.8512287
000160 dd f7 53 3f 84 c2 32 c0 a1 b8 cf 3f a5 25 fe 3f
       0.82800084 -2.7931223 1.6228219 1.9855238
000170 22 0e 0b 3f 88 32 ce 3f 2e b3 d8 3f 53 94 0f 40
       0.5431844 1.6109171 1.6929681 2.243428
000180 18 7a 37 40 06 12 06 40 87 39 24 bf 59 2c 4f bf
       2.866827 2.09485 -0.6415028 -0.80927044
000190 d9 59 96 bf 40 61 99 40 8d c6 8b 3d 78 05 c2 bf
       -1.1746169 4.7931213 0.0682498 -1.5157919
0001a0 b5 77 fe 3e a3 8e 9c 3f 18 4c 0a c0 fb 8a 5c bf
       0.49700704 1.2231029 -2.1608944 -0.8614957
0001b0 69 46 57 bf a8 96 0c 3f dd 2c a4 bf 23 4e 46 3f
       -0.8409181 0.54917383 -1.2826191 0.7746298
0001c0 40 ac 2d c0 dc 21 08 40 af a5 8a 3f 64 5a 69 3f
       -2.7136383 2.1270666 1.0831813 0.9115355
0001d0 84 c3 16 c0 84 5b 42 3c 1e 31 a2 bf dc 86 72 3f
       -2.3556833 0.011862639 -1.2671239 0.9473703
0001e0 0e 54 fd be d2 87 fe 3e 67 f2 16 c0 2e 13 88 c0
       -0.4947819 0.49712998 -2.358545 -4.2523413
0001f0 6f 3f 89 3f 81 d8 86 3f 72 64 36 bf 67 05 8f bd
       1.0722483 1.0534822 -0.7124702 -0.06983452
000200 54 95 00 40 f1 cb 13 40 9d 5d 00 40 b8 13 c2 3f
       2.0091143 2.3093226 2.0057137 1.5162268
000210 ef db f2 bf 03 f5 9f 3f bd b2 35 40 79 2f d5 3f
       -1.8973368 1.2496647 2.8390343 1.6655113
000220 25 fe 93 3e be 29 92 be 78 28 b2 3f 0c 39 04 3e
       0.28904834 -0.28547472 1.39186 0.12912387
000230 d2 cc d9 bf 36 19 43 40 39 cb 47 bf af 79 db 3e
       -1.7015631 3.0484138 -0.7804447 0.42866275
000240 30 18 55 40 b1 5d 82 bf 1a 7d c6 3f 6e 1c 0c 40
       3.3296013 -1.0184842 1.5506928 2.1892352
000250 3b a8 09 c0 3e 38 e9 3e 8a b0 17 bd 00 a5 c2 3f
       -2.150893 0.45550722 -0.037033595 1.5206604
000260 d1 e0 b0 bf fd 5b 47 bf f1 fd 29 bf 4f bc a9 bf
       -1.3818609 -0.7787474 -0.6640311 -1.3260592
000270 a0 64 aa be 1e 6e 2a 3e 6a 0e 5b 40 8a d2 c6 3f
       -0.33279896 0.16643569 3.4227548 1.5533001
000280 b3 4c 1c be 1c 37 28 c0 d3 28 c3 3e ff 37 f5 3d
       -0.15263633 -2.6283636 0.38117084 0.11973571
000290 16 ef 73 bf cb 9b d4 be 58 30 28 3e 4d ea 30 3f
       -0.9528669 -0.4152511 0.16424692 0.69107515
0002a0 0e 07 d8 bf 81 96 90 bf fb 0e ff bf 93 e2 d2 bf
       -1.6877153 -1.129593 -1.9926447 -1.6475395
0002b0 fd c6 12 3e dc 19 11 3f c2 8c 3f bf 4d 06 02 c0
       0.1433372 0.56680083 -0.74824154 -2.0316346
0002c0 25 35 84 be 58 a2 01 c0 95 19 61 bf f8 ff ad be
       -0.25821796 -2.0255337 -0.8792966 -0.3398435
0002d0 a7 6e 8a bf c3 44 5a bf 67 bc 26 bc d1 73 18 c0
       -1.0815018 -0.8526117 -0.010176755 -2.3820689
0002e0 23 9e 9d 3f f5 6c 64 bf 4a 94 36 c0 57 dc 90 be
       1.2313884 -0.89228755 -2.8528008 -0.28293106
0002f0 8b c5 f5 3e 79 96 b4 3e ca 2e 6a 3f 63 83 36 c0
       0.48002276 0.35271052 0.91477644 -2.8517692
000300 16 da a0 bf 53 77 ac bd ff 73 95 40 75 cf 38 bf
       -1.2566555 -0.08421197 4.6704097 -0.72191554
000310 b5 a5 29 40 7b 3a 12 bf 3b 7c 10 40 73 4b 7d 40
       2.650739 -0.57120484 2.2575824 3.95773
000320 f6 f5 a0 3f f7 17 82 3f b9 fc 9d 3f d0 be 94 3c
       1.2575061 1.0163563 1.234275 0.018157393
000330 a4 c0 ab bf ad a6 d9 be e0 96 57 3e 84 e6 6e bf
       -1.3418164 -0.42509976 0.21053648 -0.9332049
000340 07 05 38 40 80 83 32 40 3a 53 da be e5 f6 98 3f
       2.8753068 2.7892761 -0.42641622 1.1950346
000350 4b f6 06 c0 15 77 00 bf 55 c4 ad be 75 ca 3c 3f
       -2.1087825 -0.50181705 -0.33938852 0.73746425
000360 05 93 30 3f 2b 80 c6 3f 7c 48 58 c0 58 a2 c1 3d
       0.68974334 1.5507864 -3.379424 0.09454793
000370 78 e1 a0 3f 24 db 31 3e 08 dc 17 3e 26 ee d2 3f
       1.2568808 0.17368752 0.14830029 1.6478927
000380 d2 65 e5 3e 2a 7f b5 3f 02 e7 8d bf ed 9a 1f 3f
       0.44804245 1.4179432 -1.1086123 0.62345773
000390 22 14 17 40 a1 a2 03 40 1d 1d 02 40 52 77 d3 3f
       2.3606038 2.056801 2.033027 1.6520789
0003a0 d8 3b 9b bf ed fd 0a c0 61 70 d3 3e 6d 4d 49 3f
       -1.2127638 -2.1717484 0.41296676 0.7863377
0003b0 62 d6 04 3f 82 c1 6d c0 6c 31 05 3f 9e 8a 03 bf
       0.5188962 -3.7149358 0.52028537 -0.5138339
0003c0 bc 8c 00 40 c7 47 d2 3d 56 9c 88 3e 19 77 0b 3f
       2.0085897 0.10267597 0.26681775 0.54478604
0003d0 48 3b 81 bf e4 92 24 40 02 0a 6e be 32 d0 80 bf
       -1.0096216 2.5714655 -0.23246005 -1.0063536
0003e0 4d 48 a7 3e 84 77 e8 3f 3c 59 07 bf a6 2e 7d 3f
       0.3267235 1.8161473 -0.52870536 0.98899305
0003f0 4d 27 e6 bf c1 97 34 3d b8 38 29 bf e1 cf 3e c0
       -1.7980744 0.044090036 -0.6610217 -2.981438

critic.v_net.fcs.1.bias f4 [64]
000000 81 48 bd bd 7a 24 34 bf 4d 4c f4 bf d5 3d 03 bf
       -0.09242345 -0.7036816 -1.9085785 -0.51266223
000010 03 46 51 3f 52 1a f2 bd b2 d7 54 3f e2 5e 32 40
       0.81747454 -0.118214265 0.83141625 2.7870412
000020 17 9e c4 bf b7 7d 50 bf ae 1a d3 be 03 73 aa be
       -1.5360745 -0.81441826 -0.41231292 -0.33290872
000030 b3 43 8e 3e 29 b7 bc 3f af 71 0e bf 4d f9 33 3e
       0.27786025 1.4743396 -0.5564222 0.1757557
000040 10 00 8a be 90 05 dd 3e 7c e3 e4 3f e7 9b 46 bf
       -0.26953173 0.43168306 1.7881923 -0.7758164
000050 22 44 9d 3d 98 b5 6d 3f 34 d1 bc bf 65 c0 cf 3d
       0.07679011 0.92855215 -1.4751344 0.10144118
000060 1d 7e ad bf 23 4b 4c 3f e2 1c 91 bf df 4d ff 3e
       -1.3554112 0.7980215 -1.1336939 0.49864098
000070 b8 63 d2 3e 9a 1a 69 3f 2b 8b 12 3f 7e 0e 00 3f
       0.41091704 0.91056216 0.57243603 0.50022113
000080 44 24 a8 bf d4 19 87 3e 51 58 87 3f 42 46 37 3f
       -1.3136067 0.26386893 1.0573827 0.7159158
000090 15 5f a8 3d d2 c9 2e 3f c5 20 8f 3f 8a 90 20 bf
       0.082212605 0.68276703 1.1181875 -0.6272055
0000a0 fa 12 77 be 4e 83 a9 bf 4e 2b 94 3f 82 41 d1 bf
       -0.24128333 -1.3243196 1.1575716 -1.6348116
0000b0 da dd b3 bf 59 2a 09 bf 23 62 b4 3f 08 1b 62 3e
       -1.4052079 -0.5358024 1.4092449 0.22080624
0000c0 6a 99 92 3f 8b bc f2 3f 79 a4 68 3f 6d 2d 2a 3e
       1.1453068 1.8963789 0.90875965 0.16618891
0000d0 3e 84 a5 bf 0a 1e c5 bf 97 c9 63 bf f8 ab 12 40
       -1.2930982 -1.5399792 -0.88979477 2.2917461
0000e0 1c 6d ce be dd 37 1b 40 93 bf 21 bf 01 53 4f bf
       -0.4031762 2.4252846 -0.63182944 -0.8098603
0000f0 4d bb c2 3e 2a 39 16 3f 3d 05 9d bf a3 19 a8 be
       0.38033524 0.58680975 -1.2267224 -0.3283206

critic.v_net.fcs.2.weight f4 [1, 64]
000000 48 43 dc 41 3e 12 4f 41 f4 62 6e 41 3a 88 50 41
       27.532852 12.941954 14.8991585 13.033258
000010 82 74 2b 41 a5 d7 9b 41 d1 c0 8d c1 71 9b 92 c1
       10.715944 19.480295 -17.719149 -18.3259
000020 0f 19 14 41 ce d8 1e 41 f0 40 22 c1 0a ea a9 41
       9.256118 9.927931 -10.140854 21.239277
000030 9d 4b 65 41 03 d3 58 c1 3b db 45 41 fe f0 41 41
       14.33096 -13.551517 12.366023 12.121336
000040 f9 ec ab 41 b5 f1 94 c1 35 84 21 c1 4e 42 2e 41
       21.49071 -18.618021 -10.094777 10.891188
000050 94 f1 3d 41 7e d9 22 41 e3 c5 5f 41 4d f8 90 c1
       11.871479 10.178099 13.985812 -18.12124
000060 f2 20 0c 41 e4 e3 47 c1 a8 da 4d 41 4d e1 88 41
       8.758043 -12.493137 12.865883 17.11001
000070 57 f4 c0 c1 78 0c 7c c1 4a 10 90 c1 c8 c1 4e c1
       -24.119307 -15.753044 -18.007954 -12.92231
000080 9b 02 64 41 60 f3 3c c1 19 61 8a c1 2a 90 89 c1
       14.250636 -11.809418 -17.297411 -17.195393
000090 54 89 21 c1 5f 59 7f c1 9b 1e 0e c1 cb 53 6e 41
       -10.096027 -15.959319 -8.882472 14.895457
0000a0 78 e4 65 c1 9e 11 85 41 91 7d 91 c1 fb 64 02 41
       -14.3682785 16.633602 -18.186312 8.149653
0000b0 43 c8 2f c1 2f 3e 87 41 52 02 4a c1 a9 a0 ad c1
       -10.986392 16.905363 -12.6255665 -21.703447
0000c0 5c 09 61 c1 f1 e5 8e c1 75 fd 60 c1 c6 75 a7 41
       -14.064785 -17.862276 -14.061879 20.932507
0000d0 7e a5 97 41 47 a5 89 41 98 de 99 41 2b 75 19 c1
       18.955807 17.205702 19.233688 -9.591105
0000e0 8c 2e 6c c1 a2 e0 85 c1 a6 bd 80 41 13 dd 2f 41
       -14.761364 -16.734684 16.092602 10.991473
0000f0 63 23 5f c1 f5 b7 c9 c1 1d 3f c2 41 58 cf 0e c1
       -13.946139 -25.214823 24.280817 -8.925621

exp_avg f4 [64, 6]
000000 9c 8a dc 3a 47 23 1d ba 2f f7 c6 3b 6d d3 5d 3b
       0.0016825977 -0.00059943314 0.006071947 0.0033847943
000010 0f 45 a3 3b 1b 3b e3 3b 7d d9 c7 3b e5 51 2a bb
       0.0049825977 0.006934536 0.0060989247 -0.0025988754
000020 16 df 1a ba 23 09 55 3b 55 cc e9 3a a5 bf bd bb
       -0.0005907876 0.0032506667 0.0017837385 -0.005790668
000030 0a e0 80 bb c3 48 29 3b d9 45 db 3b 81 40 3b bb
       -0.0039329575 0.0025830723 0.006691676 -0.0028572383
000040 ab 4b 72 ba 1a b3 8b 3b 57 1d bd 3a b1 19 3d ba
       -0.0009242843 0.004263294 0.00144283 -0.0007213606
000050 58 0b 97 3a 76 03 23 b9 d0 43 3c bb 36 02 c9 ba
       0.0011523766 -0.0001554618 -0.0028726943 -0.0015335742
000060 18 6e 12 bb d9 56 18 ba fa c8 34 bb 67 90 26 ba
       -0.0022343453 -0.0005811281 -0.0027585612 -0.0006353915
000070 9e 9c cd bb b9 4d 84 3a ff 3c 86 3a 3d 03 e9 3a
       -0.0062747737 0.0010093964 0.0010241567 0.0017777454
000080 cd fb 85 bb 6b c1 ec ba 5c 9e ba ba 84 08 d0 ba
       -0.004088855 -0.0018063014 -0.0014237869 -0.0015871678
000090 9f e2 51 bb b8 e8 c8 3a e7 d9 be 3a d2 f8 86 ba
       -0.0032025946 0.0015328145 0.001456079 -0.0010297543
0000a0 27 36 0c 3b 3f e0 84 3a 3c c6 ef 3a 41 d3 16 bb
       0.0021394582 0.0010137631 0.0018293331 -0.00230141
0000b0 e8 d0 04 bb 90 db 55 3b 6a ac 7f 3b e5 c4 1a b9
       -0.002026612 0.003263209 0.003901268 -0.00014759933
0000c0 67 24 11 b9 b8 e3 37 ba b5 ec f7 3a e4 86 08 39
       -0.00013841839 -0.0007014829 0.0018915149 0.00013020221
0000d0 d9 cf 02 bb 4e 76 47 ba 7c de a6 b9 db 39 8c ba
       -0.0019960313 -0.00076088763 -0.0003182775 -0.0010698395
0000e0 9e b5 03 bc 55 f8 80 ba 26 75 ea ba ac 6d c7 bb
       -0.008038906 -0.0009839634 -0.0017887696 -0.006086072
0000f0 96 32 72 bb cf 6e 10 3a 50 45 0d bb be ef 8f bb
       -0.003695642 0.0005509676 -0.0021556206 -0.004392593
000100 35 90 ab bb 43 1f 06 bc 09 f8 3c bb c7 eb c2 3a
       -0.0052356967 -0.008186164 -0.0028834364 0.0014871293
000110 fb 70 2a 39 a5 26 88 bb 44 c5 ac bb 9f d8 c3 bb
       0.00016254552 -0.0041549974 -0.0052725393 -0.005976751
000120 31 54 72 bb ff d3 4a 3b 9e ab 56 3b 86 47 af bb
       -0.0036976452 0.0030949113 0.00327561 -0.0053491024
000130 6d 74 c3 bb c4 a3 0d 3b 76 6f 19 bb 94 0a 32 b9
       -0.005964807 0.0021612504 -0.0023412383 -0.00016979343
000140 43 9a 22 3b 2e 83 e4 ba 7c 81 99 39 c6 47 c0 b9
       0.0024811185 -0.0017434114 0.00029278907 -0.0003667457
000150 39 3b aa 3a bb 52 01 3a e9 c2 cf 39 2f 31 3f b8
       0.001298762 0.0004933287 0.00039627336 -4.5583754e-05
000160 d5 13 62 39 2d b2 88 3b 65 19 42 bb 9e 3a 36 bb
       0.00021560428 0.004171631 -0.0029617187 -0.0027805935
000170 9b c1 2d bc cb 69 85 b8 5a f4 1d bb 0c e6 33 bc
       -0.010605241 -6.36164e-05 -0.0024101944 -0.01098014
000180 04 0b 3f bb 60 05 f0 3a 95 fa dc ba 49 10 80 bb
       -0.0029150853 0.0018312149 -0.0016859347 -0.0039081913
000190 e5 fd 4d bb ca ba 0f 3a 96 ed a1 3b 7b c0 0e bb
       -0.003143185 0.0005482851 0.0049416525 -0.0021782208
0001a0 aa b7 61 3b 47 d4 86 3b 11 62 00 3b 59 9b 0c 3b
       0.0034441748 0.004114661 0.0019589702 0.00214549
0001b0 d4 13 ca bb 5e c0 ee 37 b6 ff 48 39 fd 0d ea ba
       -0.0061669145 2.8461389e-05 0.00019168746 -0.0017856952
0001c0 39 b6 5b 3a 02 ac 43 b9 30 d2 a1 bb 43 d6 40 3b
       0.00083813403 -0.00018660727 -0.0049383864 0.0029424585
0001d0 35 31 34 38 de 9d aa bb 6b 4c a9 bb 8b 3a f2 b8
       4.2961172e-05 -0.0052068075 -0.0051665804 -0.00011550364
0001e0 a5 33 e6 3b fb cf 44 bb 84 fb 61 bb 1b 20 16 3b
       0.0070251995 -0.0030031193 -0.003448219 0.002290732
0001f0 3f 4b 2f bb d6 fe 4b bb b3 1a 8c bb ad a8 89 3b
       -0.002674773 -0.0031127236 -0.0042756437 0.004201016
000200 c3 36 cb ba ff 3b 0b bb 80 3b db 38 bc 40 f3 3b
       -0.0015503991 -0.0021245477 0.000104538165 0.0074234884
000210 b7 dc 17 ba 5a f8 16 3a 2c 76 33 3a 89 c5 b2 ba
       -0.0005793082 0.0005759053 0.0006845917 -0.0013639192
000220 24 08 d7 ba 9a ba d6 3a 15 81 62 3b 7a 6a 08 bb
       -0.0016405624 0.0016382516 0.0034561802 -0.0020815418
000230 79 a2 6e bb 69 ad 7b 3b 3e c8 85 3b 6e 63 61 ba
       -0.003641276 0.003840292 0.0040827086 -0.0008597885
000240 4f 27 da 39 5e 6c fa 3a 75 4f 7d 3b db 9e 68 3a
       0.00041609487 0.0019105782 0.0038652096 0.0008873769
000250 fd 03 74 3b 27 3b e0 3b 73 5a dd b9 44 46 10 39
       0.0037233823 0.006842989 -0.00042219795 0.00013759086
000260 d9 39 3a 3a 1c 54 8c b9 0c 2e b5 38 10 1a d6 3a
       0.0007103957 -0.00026765547 8.6393295e-05 0.0016334672
000270 c2 3b b1 3a cd de 30 bb 38 18 0f bc 0c 02 a2 3a
       0.0013521838 -0.0026988268 -0.008733802 0.0012360229
000280 f2 f9 fa ba 39 a9 d4 bb 59 96 17 bb 76 02 28 3b
       -0.0019147976 -0.0064898995 -0.0023130386 0.0025636232
000290 d3 3b e8 3a e1 2f 77 bb c0 c2 6c bb a7 1f 62 3b
       0.0017718024 -0.0037717747 -0.0036126822 0.003450373
0002a0 cf 4b 1e 3b 75 11 20 ba dd c9 43 3c cf 85 b0 3a
       0.0024154072 -0.0006106117 0.011949983 0.0013467612
0002b0 15 74 92 3a e9 ef 0c 3c a3 e9 d1 3b dc 0d c2 bb
       0.0011173511 0.008602121 0.0064060255 -0.0059220623
0002c0 d7 02 e2 ba d4 35 b6 39 13 b0 7f bb 29 7d a3 ba
       -0.0017243278 0.0003475385 -0.003901486 -0.0012473214
0002d0 fb a6 57 bb 30 b3 3e 3b 65 05 a7 ba bc f7 8c bb
       -0.0032905925 0.0029098503 -0.0012742697 -0.004301993
0002e0 cd 5d 4a bb ba 6e 43 3b 4f 49 0f 3a 9c da be 3a
       -0.0030878664 0.0029820637 0.0005465941 0.0014561
0002f0 fa 4b 8e 3b 27 fd 6b 3b da 0f d3 3b 6a dd 1b 3c
       0.004342553 0.0036009045 0.0064410986 0.009513238
000300 06 2c b6 3b f8 39 a2 bb 1c ea fe 3a f9 52 06 3b
       0.005559447 -0.004950758 0.0019448432 0.0020496233
000310 80 a6 3e b9 66 ec 02 bc c5 39 81 bb 9e ec a1 ba
       -0.00018181838 -0.007990932 -0.0039436542 -0.0012353843
000320 45 bd de bb ae 9d 5d b9 df 0e 0d b9 57 8f db bb
       -0.006797465 -0.00021134943 -0.00013452348 -0.006700437
000330 a4 3c 74 bb 77 4b a4 ba 5f 42 dc 37 ea 4a a9 bb
       -0.003726759 -0.0012534697 2.625695e-05 -0.005166401
000340 56 7b 05 bc a6 97 64 bc d4 48 dd 3b c1 66 36 bb
       -0.008147081 -0.013952171 0.0067530666 -0.0027832242
000350 27 11 63 bb b2 19 76 3b e8 d8 fd 3a 9f 5a e3 bb
       -0.0034647675 0.0037551937 0.0019367011 -0.006938293
000360 20 c7 c2 3a 7b 91 fd 38 40 da d1 ba 4f 7c 19 3b
       0.0014860369 0.00012091078 -0.0016010478 0.002342004
000370 94 7e 05 3b fa 63 d7 3b 8e 77 05 bc b7 1f cf 3b
       0.0020369636 0.0065731974 -0.00814618 0.0063209194
000380 ce ab 29 bb 0f 05 23 bb 15 49 40 3a 6a 96 1e 3c
       -0.0025889757 -0.0024874841 0.0007335109 0.009679416
000390 f5 16 1a 39 5b b9 ba 39 3e f7 11 b6 51 5c 9a 39
       0.00014695137 0.00035614785 -2.1750598e-06 0.0002944195
0003a0 65 b8 ef 3a 0b e7 24 3b e4 0b 32 3b be 53 03 3a
       0.0018289207 0.0025162126 0.0027167732 0.0005009732
0003b0 b8 5a 11 3b 7b dc 77 3b 3a 4c ac 3b 1b 77 20 3c
       0.0022179317 0.0037820626 0.0052581104 0.009794022
0003c0 dc e4 5b bb ff 58 21 3b 7a 33 82 3a 06 c8 48 b9
       -0.003355316 0.0024619696 0.0009933554 -0.00019148001
0003d0 2e 1f 23 3a 6c 2b 59 3b 7e a8 3c bb 7d 9d 0c 3b
       0.00062226027 0.0033137454 -0.0028786953 0.0021456175
0003e0 5f 80 8f 3b c8 aa 56 bb 8f 55 ae ba 12 6c bf 3b
       0.0043793167 -0.0032755602 -0.0013300645 0.0058417404
0003f0 b9 7a 1e bc ba f2 3b 3b f2 f0 99 3b b5 d4 67 bb
       -0.009672814 0.0028678612 0.0046979124 -0.0035374586
