scripts/training_results/dubin_rarl_game/rapgame/seed_42/10000000steps/model_latest.pt (torch, 412517 bytes, 90 tensors)

actor.pi_net.fcs.0.weight f4 [64, 6]
00000000: b110 3c3e b867 59bf 2668 e43d 431a bd3e
00000010: d7e6 cfbb 4b3b 79be 85e0 13bf 22e9 a83e
00000020: 6914 2bbf 2f0c 563e f5d2 d23e c291 3c3f
00000030: ceca 923e 3fb3 f53d 485b 9d3d 1cc3 cfbe
00000040: 677c 443e ccf2 aebe 947b 7b3e 000f 5bbf
00000050: a991 92bc 04bd dabe d586 513f 954e 373f
00000060: fc86 083f 962d 733f 63b2 353f 5822 ce3e
00000070: a734 32bf d8f5 0c3e c6bf 063f 2a05 45bf
00000080: 009b b9be d784 12bd a7de fc3e 9ea8 99be
00000090: 9939 aebe 9d20 a23e 67bd d83e f6fa 5b3e
000000a0: a0a1 f23c 39a7 28bf 8469 78bf 1e76 35bf
000000b0: 5971 8dbd 90b9 9b3f 0df5 5d3f 467a d1bd
000000c0: f5e8 26bd 6915 84be c785 a4bc 2da2 42bd
000000d0: bfa6 903e 59b3 1a3d f732 093e 4086 6e3e
000000e0: 1002 ccbe aad6 173f f46d ccbd 266d 873e
000000f0: 604e 193f 857c 6e3e 905a 35bc 7cec febe
00000100: bab5 213d 9f96 16bf afb4 b73d 98f5 a13c
00000110: 1a43 1bbd b9ea d0be c214 4a3c 261e 91bc
00000120: 6a49 a1bd 470c b53e 045d 22bd bd62 8dbd
00000130: 6a4e cabc 534c dabd 6d5c d0be 4c57 52bf
00000140: 40e7 b43e 5c49 dfbe 6133 393f 45d0 b8be
00000150: 8c01 c03e 1b76 72bf bd4b c1be 6d77 843c
00000160: 6074 fb3e f886 d4be da7a c93e bc4e 1e3f
00000170: 9f06 c23d f103 b4be b27f 303b 25d9 d13e
00000180: 0df4 ec3e 790d dbbf 5f82 ccbd 54b5 a43d
00000190: 2e2e 2e3c 802a 72bf 08b5 8f3e 2809 443f
000001a0: bbf0 113e aece dcbe 308e 58bf 0e4a 873f
000001b0: f278 80bf 1c90 5cbe 7586 f03e d670 593e
000001c0: 802a 843f 4916 9bbe 48aa 5b3e 61d4 333f
000001d0: dd85 a0bc 7acb 5abf 53a3 45be dc61 70be
000001e0: faed 46bf fcac 11be e638 72be 6074 5b3e
000001f0: 38e2 33bf 2592 053f 6c6d 33be 11e4 913e
00000200: 951a 01be 6e36 27bf 4b92 0ebf 9247 bcbe
00000210: 5354 823e 2af5 9bbe 9034 703d acd8 adbe
00000220: 3417 ba3d 242d 1cbe a18f ccbe 2ba3 ddbe
00000230: 7c9c 13bd 9e7a 4c3f 103f 03bf 942f d53e
00000240: c168 8f3d 914b 06bf 4395 c63c 3c71 4c3e
00000250: b5b7 ac3d 2a19 e8bd 628b 893e 1476 24be
00000260: 88a1 3b3d 9be4 98be 60a1 ab3e 1426 41be
00000270: 6cfb 17be 9a6c cb3e 0e2d adbe f75b f73e
00000280: 25fd 613c ef78 623e 124c f53e bae3 f3be
00000290: b82e e13c 4eac 5ebf 9cc5 4c3f c28c adbd
000002a0: 581a 81bf 3ff8 71be 1179 b53e 3c42 7ebf
000002b0: 0d03 233f 375d a83e 8110 1a3f c5ff 78be
000002c0: 3b72 153e 0eb2 04bf d18c 003f 54ab 203f
000002d0: 326a 143e 51e6 c53e de7b 3cbc 1395 5dbe
000002e0: ae9e 1bbe 3209 893d ca5b ccbe 380f 013e
000002f0: e8ae de3e 716f 693f c673 f03e d9f5 3abe
00000300: 27bb b13e d76b 96bf 6227 6a3d 4111 33be
00000310: 004c 783f e4e0 013e 3db9 5abf c330 79be
00000320: 9c0e de3e 8524 b03e e332 30bf f3d3 17be
00000330: 7871 3e3f ab47 a43e cc48 26be 3a3f 8fbf
00000340: 778f c7be 85fa 333e 8455 30bf 1aad e33e
00000350: 930f 2a3b ce94 733f a6a7 13bf 1637 9e3e
00000360: a4ec b9be 8624 7ebf 1578 41bf 2b67 7e3d
00000370: a55f 173f 9b73 0abe fb85 30be 523c 633f
00000380: bf8e a0bd 370e 4b3e 1007 9abf 60e2 53bf
00000390: c46a 183f a4e4 183e 6394 07bd c61e a03d
000003a0: 72b2 c6bd 7fda a5be 84b7 ffbe b15c f2bc
000003b0: cfe9 45be 366e 27bf 598b f4be 629e 7bbb
000003c0: ee6f f2be e781 1ebe c6b5 703e 8504 54be
000003d0: 71b1 19bf d13e ddbe 0be8 a93d 738a 79bf
000003e0: 5fca bd3d 7e05 c9be fdfa 77be 4e77 f0be
000003f0: d0b1 40be 7136 673e 2c36 233f 5d61 04bd
0.18365742 -0.8492389 0.11152677 0.369341 -0.006344657 -0.24339025 -0.57764465 0.32990366
-0.6682802 0.20903085 0.41176572 0.7365991 0.28670353 0.11997079 0.07683426 -0.40578544
0.1918808 -0.34169614 0.2455886 -0.85569763 -0.017891722 -0.42722332 0.8184636 0.7160428
0.5333097 0.94991434 0.7097532 0.40260577 -0.6961159 0.13765657 0.52636373 -0.76961005
-0.36251068 -0.035771217 0.4938862 -0.30011457 -0.3402832 0.31665507 0.42332003 0.21482453
0.029618084 -0.6588016 -0.97036004 -0.7088336 -0.06906385 1.2166004 0.8670204 -0.102284
-0.04074951 -0.25797585 -0.020083321 -0.047517944 0.28252217 0.037768696 0.13398348 0.232934
-0.39845324 0.59311926 -0.099819094 0.2645046 0.59885216 0.23289688 -0.011068955 -0.49789798
0.03947995 -0.5882358 0.089700095 0.019770429 -0.03790579 -0.4080408 0.012334051 -0.017714571
-0.07875331 0.3536093 -0.039639488 -0.069035985 -0.024695594 -0.10659089 -0.40695515 -0.82164454
0.3533268 -0.43610656 0.72344023 -0.36096397 0.3750118 -0.94711465 -0.37753096 0.016170228
0.49112225 -0.41509223 0.3935154 0.6183889 0.09473919 -0.35159257 0.002693158 0.4098598
0.46279946 -1.7113487 -0.09985804 0.08042398 0.010631127 -0.945961 0.28067803 0.7657647
0.14251988 -0.43126434 -0.8459196 1.0569475 -1.003691 -0.21539348 0.46977583 0.2123445
1.032547 -0.3029044 0.21451676 0.7024594 -0.019595081 -0.8546673 -0.19300584 -0.2347483
-0.77706873 -0.14226145 -0.23654518 0.21431112 -0.7026706 0.52176124 -0.1752221 0.28494313
-0.12607796 -0.6531743 -0.55691975 -0.36773354 0.2545496 -0.30460483 0.058643878 -0.3395437
0.09086457 -0.15251595 -0.3995333 -0.4328855 -0.036037907 0.798746 -0.512681 0.41637862
0.07002402 -0.52459055 0.024241095 0.1996507 0.08433477 -0.11332925 0.26864153 -0.16060668
0.045808345 -0.29861912 0.33521557 -0.18862182 -0.14842004 0.39731294 -0.33823436 0.4831235
0.0137932645 0.22116445 0.479096 -0.4763468 0.027488098 -0.86981666 0.7998903 -0.08474113
-1.0086164 -0.23629855 0.3544393 -0.99319816 0.6367653 0.32883617 0.6018143 -0.24316318
0.14594357 -0.5183419 0.5021487 0.62761426 0.14493635 0.3865228 -0.011504142 -0.21638899
-0.1519725 0.06691207 -0.3991378 0.12603462 0.43492818 0.9118567 0.46963328 -0.18257846
0.34713098 -1.175166 0.057166465 -0.1748705 0.96990967 0.12683445 -0.854389 -0.24335007
0.4337052 0.34402862 -0.68827647 -0.14826946 0.7439189 0.32085928 -0.16238707 -1.119117
-0.38976642 0.17576034 -0.68880486 0.44468004 0.0025949224 0.9514893 -0.57677686 0.30901402
-0.36313355 -0.9927448 -0.75573856 0.062110107 0.59130317 -0.13520662 -0.1723861 0.88763916
-0.07839727 0.19829641 -1.2033405 -0.82767296 0.5953791 0.1493097 -0.033100497 0.078183696
-0.097020045 -0.32393262 -0.499447 -0.029585214 -0.19327472 -0.65402544 -0.47762564 -0.0038393964
-0.4735102 -0.15479241 0.23506841 -0.20704849 -0.6003638 -0.43211988 0.08296212 -0.9747688
0.09267115 -0.39262003 -0.24216838 -0.46966022 -0.1881783 0.22579361 0.63754535 -0.032319415

actor.pi_net.fcs.0.bias f4 [64]
00000000: 9ad0 423f 7af0 023f d099 603e a4fb 14be
00000010: ded2 12be 748c a43e 51f2 f93d 5f67 573e
00000020: 14e8 b03d bf07 32bf 5e37 2cbf 9ac7 cdbc
00000030: b57b 73bc 1857 16be ed10 cf3e 4696 40bf
00000040: 9653 be3d c42b 523f 370f f4be 8260 adbd
00000050: 045a 4dbf 6e0c 343e aa20 10bd 1eea 993e
00000060: f9b0 a83e 7e93 a63d 73aa 04bf 4fa0 4dbe
00000070: e415 1e3f 7bd7 23bf 26a6 94be bd55 8fbe
00000080: b6d5 903e a40b 07bf 1764 8ebe ca1b 143f
00000090: dd26 8d3e e1fc 203d 7eb1 adbd 5587 ed3e
000000a0: 43c3 063f a90a 8dbe 9cce e3bd 0deb d8be
000000b0: fd67 403f ee4b fabe 0524 7d3e 47c0 25bf
000000c0: 218e 35bf 9311 0cbf 2229 36be 74ff 123e
000000d0: b48f fdbd b00c 0ebf d31b 92be 0d4d b03d
000000e0: d17a f43d 9772 bcba 7c89 b63c ca85 bcbe
000000f0: 07fd f4be e973 2c3e 9247 a5be ca5b 393f
0.7609955 0.5114819 0.21933675 -0.14549118 -0.14338252 0.32138407 0.12204421 0.21035527
0.086380154 -0.6954307 -0.67271984 -0.025119592 -0.014861037 -0.14681661 0.404426 -0.752293
0.092932865 0.8209803 -0.47667858 -0.08465673 -0.8021548 0.17582867 -0.0351874 0.3006143
0.3294752 0.08133601 -0.51822585 -0.20080684 0.6175215 -0.6400067 -0.2903301 -0.279951
0.28288049 -0.5275214 -0.27810737 0.578549 0.27568713 0.039303664 -0.084811196 0.46392313
0.52641696 -0.27547196 -0.11123392 -0.4236683 0.75158674 -0.48886055 0.24720772 -0.64746517
-0.70919997 -0.54714316 -0.17789128 0.1435526 -0.12380925 -0.5548811 -0.28536853 0.08608446
0.11937488 -0.0014377412 0.022282355 -0.36820823 -0.47849295 0.16841091 -0.32281166 0.72405684

actor.pi_net.fcs.1.weight f4 [64, 64]
00000000: e130 983d e809 523b cf6a a73d d911 573c
00000010: 5a5b fa3c bbc1 ae3d 1e73 2abc f2c5 46ba
00000020: 00e7 6cbd 59a7 c03d 3c14 6cbb 6e89 78bd
00000030: affc a23d 8b18 343b 847e 5abd 51f4 be3b
00000040: d3ca b63c 9550 48bd 72c9 b4bc 1165 62bc
00000050: 44d2 c33a 4554 843b 6230 90bd c743 dabc
00000060: c3b0 ecbd 5d8f 823d 50f1 8839 ff17 2a3d
00000070: b052 e13c a695 b93c b0b0 c93c 476b 9f3b
00000080: 4a03 1fbb 277c e73c 4ffd 9bbd 961e 653c
00000090: de91 1f3d 9e22 ddbc a93b 5e3c 4d06 08bb
000000a0: 115e ab3d 2c02 933c 1a85 75bd 82b1 abbc
000000b0: f0e7 473d cb6d 81bd da2e 7ebd b493 f0bc
000000c0: d609 783c 772c 37bd 1ed4 9f39 adce a0ba
000000d0: db0e 783d a8f9 b23c 6645 2bbd d370 383c
000000e0: 1900 0c3d 6859 a9bc 39f0 6e3c 9442 cbbd
000000f0: 7780 343d 6c97 6b3d 0c9c d93c d7de 8abc
00000100: 3893 193d 1852 1b3d bc83 b43c 4a16 85bb
00000110: 5d70 2f3d 8101 38bd 4d93 77bd f85b 6b3d
00000120: fa6b 723c c251 6d3c 6e82 a03c f623 013b
00000130: 2ab3 44bd 6a20 ff3c 70eb d2bc 3bbf 53bb
00000140: d9a6 353c 752c d43c 6fb8 73bd ad3a 503c
00000150: e38a c3bc 4b59 793d aaf9 e93d 7336 123d
00000160: f146 22bd 08cc edbd 71bd 4b3d 202e afbc
00000170: b073 b6bc f05a 613c 0f48 523d c74f 213d
00000180: 380d 383c 907c 7abc cb43 bd3c 1e44 20bc
00000190: 0baf 4b3d 5c52 59bc 8cb4 c4bc cf9c 3abc
000001a0: a2e5 183d f519 133c e370 3e3d a03c fb3c
000001b0: b4ac 0f3b 8f9d b93b 3bb8 be3c b928 4dbc
000001c0: 4c6b d2bb 7244 703c 94b6 893c 9c93 653d
000001d0: 59d0 6e3c 18f2 45bb b768 613d e6ea e4bc
000001e0: 2f6f 79bd 7d05 ca3c 858a c0bd 5718 8dbd
000001f0: 2c53 6e3d d437 46bc 7019 c93c dede 273d
00000200: e91c 25bd 6e44 1a3c 3fb2 96bd 3be6 05bd
00000210: c02c ba3c 66ef 1abc 4092 203d 4e34 233c
00000220: 3360 ef3d d7ca 903d b1a4 7b3d cac3 b2bc
00000230: 9a50 c2bc 02ac 33bb 5ade e33c da4c 81bd
00000240: 6123 20bb bf34 ef3d c993 593d e8ba 833c
00000250: 802c 84bc 5d0b 0f3d 19ef 2fbd 19c5 f8bc
00000260: eeec b8bb 7671 773d 22ed 87bd 828e d53c
00000270: 1db3 23bc a144 0c3d b42b efbd 81d1 08bd
00000280: 5f74 1c3d da52 acbc e487 0ebd 7903 823c
00000290: 80b2 5e3d 2be5 66bc 1206 2c3d d34c 72bd
000002a0: 3f33 8f3d c0f3 293d 28c6 fdbc fd60 fe3c
000002b0: 9b93 35bd 1208 debc a58e 7ebc f420 a43d
000002c0: adc0 1bbb 2a1f a7bd ce7d 5b3d 5e08 bbbd
000002d0: 2275 fa3b 3040 9dbb c9a4 5fbc 807d d4bb
000002e0: e51c c13d 455d 693c 2d37 6fbb 94d6 813d
000002f0: 2417 293d 531d f33b 97a6 103d eca6 3bbc
00000300: a180 bdbc a46a a13c ff79 433d c97e 98bd
00000310: 25f6 4dbd bd4e e33c e73f 2fbd 55e5 2d3d
00000320: f19d 78bd e3ed 32bd b305 af3c ade4 453d
00000330: 83a6 24bd bb3a fc3c d418 663c 5b30 f13d
00000340: d578 3c3d 0b25 b23d d1c6 153d b99c a73c
00000350: aa6d b23c 40d7 173d 01d4 08be 7f52 743d
00000360: 2fc7 82bd d740 c9bd b229 a93d 102d 423d
00000370: 0fe0 41bc 3e70 bbbc 19ae e2bc 6156 89bb
00000380: 66d6 13bd 21c5 36bd cecb f2bc 01e7 53bd
00000390: 1470 1ebd 5331 37bd c805 e9bb 9768 32bb
000003a0: 0544 ddbc 47ee babc 1128 31bb 2ee7 0dbd
000003b0: e5ec 65bc 75b0 b23c f631 06bc 91a5 96bc
000003c0: 8da2 873c ae6b 92bd e488 dcbc c9e4 96ba
000003d0: 51a2 25bc a7bf c3ba 99f9 6b3c 040b 08bd
000003e0: 59e7 6bbd 78cd 5f3d b72d bdbc bdcb 13be
000003f0: 75cf 313c 2924 78bc 3809 913c fedc 2039
0.07431198 0.0032049362 0.08174669 0.013126814 0.030561138 0.08533045 -0.010403423 -0.0007582597
-0.057837486 0.09406919 -0.0036022803 -0.06067794 0.07958352 0.002748045 -0.05334331 0.0058274646
0.022313511 -0.048904974 -0.022068713 -0.013818041 0.0014939983 0.004038366 -0.07040478 -0.026643647
-0.11557152 0.063750006 0.00026119733 0.04152679 0.027505249 0.022654366 0.024620384 0.0048650834
-0.0024263435 0.028257443 -0.07616674 0.013984343 0.03895747 -0.026994046 0.013564029 -0.0020755709
0.08367551 0.017945372 -0.05994139 -0.020958666 0.048805177 -0.063197695 -0.0620564 -0.029367305
0.015139064 -0.04472014 0.00030484883 -0.0012268625 0.060561042 0.021847561 -0.04181423 0.011257368
0.03417978 -0.020672515 0.014583641 -0.09924808 0.044067826 0.057517454 0.026563667 -0.016951961
0.037493914 0.037920088 0.022035472 -0.004061495 0.042831767 -0.04492331 -0.06044321 0.057460755
0.014796251 0.014484825 0.019593444 0.0019705272 -0.048022427 0.031143386 -0.025747031 -0.0032310027
0.011087143 0.025900105 -0.05950206 0.012709302 -0.023869937 0.060876172 0.11424573 0.035696458
-0.039618436 -0.116111815 0.049741212 -0.021384299 -0.022271961 0.013754591 0.05133825 0.039382722
0.01123362 -0.015288487 0.023103615 -0.009781865 0.04972748 -0.013264265 -0.024011873 -0.011389925
0.03732837 0.008978357 0.046494376 0.030668557 0.0021923007 0.0056645344 0.023281207 -0.012521916
-0.006421482 0.014664756 0.016810693 0.056048974 0.014576041 -0.0030204114 0.055031504 -0.02794404
-0.06089705 0.02466082 -0.094014205 -0.06889408 0.058184788 -0.012098271 0.024548262 0.040984027
-0.040310774 0.009415729 -0.073582165 -0.032690268 0.022726417 -0.009456491 0.039201975 0.009961201
0.116882704 0.07069939 0.06143636 -0.021821875 -0.023720074 -0.0027415757 0.027815986 -0.063134864
-0.002443515 0.116799824 0.053119455 0.016080335 -0.0161345 0.034922946 -0.04295263 -0.030367421
-0.0056434786 0.06041094 -0.06637026 0.02606893 -0.009991434 0.034245137 -0.116782576 -0.033402923
0.038196918 -0.0210356 -0.034797564 0.015870797 0.05436945 -0.014092724 0.041997977 -0.059155297
0.06992196 0.041492224 -0.030978277 0.031052107 -0.04433022 -0.027103458 -0.015536939 0.08014098
-0.0023765967 -0.08160241 0.053586774 -0.09132455 0.007643358 -0.0047989115 -0.013650128 -0.0064846873
0.09429339 0.014243429 -0.0036501393 0.06339756 0.041281834 0.007419267 0.035315122 -0.0114533715
-0.023132624 0.01970417 0.047723766 -0.07446057 -0.05028357 0.027747506 -0.04278555 0.042455036
-0.0606975 -0.043683898 0.021365022 0.048313785 -0.04019786 0.030789724 0.014044005 0.11776801
0.046013672 0.08698472 0.03656656 0.020460473 0.021780808 0.037070513 -0.13362123 0.059648987
-0.063856475 -0.0982682 0.08259906 0.047406256 -0.011833205 -0.02288067 -0.027670907 -0.0041912054
-0.03609314 -0.04462159 -0.029638197 -0.051733974 -0.038681105 -0.044724774 -0.007111285 -0.0027222985
-0.027009973 -0.022818698 -0.0027031938 -0.0346443 -0.014033531 0.021812657 -0.008190623 -0.018389495
0.016557002 -0.071494445 -0.026920743 -0.0011512275 -0.0101095 -0.0014934436 0.01440277 -0.03321363
-0.057593677 0.05463931 -0.023093088 -0.14433189 0.010852684 -0.01514534 0.017704591 0.00015341115

actor.pi_net.fcs.1.bias f4 [64]
00000000: 5557 e0bc 7d32 883c c688 733c 1c2d 873c
00000010: f8d7 d039 93ad 973c 9b7c 913b 2aae 88bc
00000020: b666 b03b 0be7 9abc ae31 4abc 9614 d43c
00000030: 4caa 2c3d 0c38 4dbe fa87 063d a207 5c3d
00000040: a357 a1bc 69d7 df3b a119 fb3c 3802 0abe
00000050: 4fa0 0b3c d794 22be 76ae 3fbd f157 4b3c
00000060: e1b1 a2bd 1467 7bbc 6cf1 8ebc b4f7 14bb
00000070: 4ccc 8c3c ad2f 1e3d 4568 283b 275e c33c
00000080: 5a2e f0bb 9957 923c bcc2 0ebd 6f4b 86bb
00000090: d62c 843d 5ec8 683e 1f8f 1abd 42fe e63c
000000a0: 9b1e 193f f3c6 383d 0d29 89bb aa99 a8bc
000000b0: cc25 88be 6d51 0a3d 9c25 e6ba ec26 efbc
000000c0: bca3 a2be c004 46bd bc1d f1be 0d4b 82bd
000000d0: 258f c83c 1890 8abe 2ca8 7fbc cd36 8b3c
000000e0: cc3f 343d 38cb e73c 11d3 6cbb 45ee 6b3d
000000f0: d795 333d 831c 883d e9ee 733d 8cba e1bc
-0.027385393 0.016625637 0.014864152 0.016501002 0.0003983376 0.018515384 0.004439903 -0.01668461
0.005383338 -0.018908998 -0.012340946 0.025888722 0.042154595 -0.20040911 0.03284452 0.053718217
-0.019695109 0.006831099 0.03065187 -0.13477409 0.008522107 -0.1587709 -0.04679724 0.012411104
-0.07944084 -0.0153444 -0.017449103 -0.002273065 0.01718726 0.038619686 0.0025696915 0.023848606
-0.0073297443 0.017864035 -0.034853682 -0.004098348 0.06453864 0.22732684 -0.037734147 0.028197411
0.59812325 0.045111608 -0.004185802 -0.020581085 -0.26591337 0.03376906 -0.0017558816 -0.029193364
-0.31765544 -0.048344374 -0.47092998 -0.06361971 0.02448232 -0.2706306 -0.01560406 0.016993904
0.044006154 0.028295144 -0.0036136548 0.05760028 0.04384407 0.06646063 0.059554014 -0.027554773

actor.pi_net.fcs.2.weight f4 [1, 64]
00000000: 35ee d2ba 08fe 7cb7 e092 9eba 6bdc 7cb9
00000010: 7eab 0d39 7ce2 033a afe1 b839 4542 d639
00000020: 0f4a 383a 7d76 62ba c3c6 693a c12d 72b8
00000030: 10fb 13b9 56b4 9f3d ca13 9e3a 18c1 b13a
00000040: 4493 893a 27d4 323a 2358 31ba a3cd 973e
00000050: 435a bfb9 d8ba 2e3e a9a5 ce39 f68d 1aba
00000060: a239 34be cc72 4e38 3733 253b 777a dab9
00000070: 7a6d c3ba fb18 bc3a db23 ba39 730b acb9
00000080: ad64 adba dfe4 9a3a b954 4c3a 2479 adba
00000090: 5613 a83d 94dd c03e 44ea 2c39 655f 3cba
000000a0: 3813 a73e 12c4 c439 81be 8d38 a911 b0ba
000000b0: b618 cd3e 46a1 cb3a 1c50 8339 4800 d4b9
000000c0: d171 d5be f8d9 0339 cc9a a63e 8798 473e
000000d0: a503 cf3a dfbe cabd 493d c43a 5cd8 6ab7
000000e0: 6932 0eba fc76 72be 8388 28ba 58a7 d1ba
000000f0: 42b0 21b8 3bf0 88b9 0fbb 0bbe 3277 9eba
-0.001609272 -1.5079517e-05 -0.0012098216 -0.00024114705 0.00013510694 0.0005031002 0.00035263362 0.00040866635
0.00070300786 -0.0008638872 0.00089178624 -5.7739908e-05 -0.0001411254 0.07798068 0.0012060341 0.0013561575
0.0010496159 0.00068217743 -0.00067651476 0.29649076 -0.0003649761 0.17063463 0.00039414808 -0.00058957876
-0.1760011 4.922114e-05 0.0025207528 -0.00041671444 -0.0014909946 0.0014350706 0.000355034 -0.00032814927
-0.0013228856 0.0011817476 0.0007794607 -0.0013234955 0.08206813 0.3766905 0.00016490469 -0.0007185846
0.3263185 0.00037530117 6.758888e-05 -0.0013432998 0.40057915 0.0015535734 0.00025045953 -0.00040436
-0.41688398 0.00012574333 0.32539976 0.19491778 0.0015793933 -0.09899687 0.0014971878 -1.3997862e-05
-0.0005424382 -0.23678201 -0.0006429033 -0.0015995307 -3.8549544e-05 -0.00026118927 -0.13645576 -0.0012089966

critic.v_net.fcs.0.weight f4 [64, 6]
00000000: 81c8 8dc0 3008 553f a249 3bbf 616c 8740
00000010: 0ccb b83e 6633 c13d cf4d 22bf 0598 50c0
00000020: ef40 8b3e 5308 7b3d f756 4c3e 06ac 263e
00000030: bd95 6740 166f b73e e7bb d83e b377 51c0
00000040: da80 56c0 0a06 b7bf e17b 91bd 35b0 0bc0
00000050: 7cb4 c1bf 137e babf b17d efbf c1e3 d6be
00000060: 70bc 833e ea1e 2340 a21f 9a3e 7448 9a3e
00000070: 1ef0 79bf 9a2e c13f f0e2 71bf 156f 303f
00000080: 7a1d c33f 2abc 12be 216a 81bf 474d 2dbe
00000090: 36b8 27c0 5114 0e40 4390 523e 507f 2040
000000a0: caf4 27c0 52d2 04be e138 c53f 8fe7 23be
000000b0: c9b3 3ebe 6f84 10c0 bf5c 103e a998 e93d
000000c0: f9f4 713f f227 8340 27f1 573f 52ca 07c0
000000d0: 5ebf 54c0 1ca9 cb3e 8539 a6be ef6f 853f
000000e0: 7b66 f5bd 52b5 513e 72d5 fabf 994a d43e
000000f0: 9847 24c0 df9f 2140 4de4 7e3e 3919 c1bf
00000100: 3eb1 a8be 1e65 a23e 0729 70bf f295 1b3e
00000110: 6896 6dbf d88a 043f 6d81 24c0 bef4 793f
00000120: 24a4 5f3f 827b 19c0 beda 21c0 2761 85bf
00000130: 3a8b 9b3f 9439 033f 1e30 0bc0 01d1 2240
00000140: 0b3b 7d3f 0deb 4640 70e3 03c0 1b48 9c3f
00000150: d4e2 4fbf 2614 8c40 91ad 0440 6de7 b23e
00000160: f08a 27bf a544 52bf 1657 25bf 5e62 25bf
00000170: a2db c1bf 650b 0940 fec6 6140 da8b 43bf
00000180: af8e ffbd 36ee c63f d2bc b93f 519e a33e
00000190: aa39 b0bf f591 1ebf 0770 553f de5c 953f
000001a0: d28c 8e3d 3253 f8bf ec51 a5bf 9a63 29be
000001b0: 7de8 4640 c078 4c40 6add 98bc 6a7c 3dc0
000001c0: b043 45c0 a8f7 45be 0a37 c9bf a432 9dbd
000001d0: 129a e43d 286c ed3e acf3 e5be 6518 a8bf
000001e0: 4b3c 79bd a2d7 1a40 8d42 eb3e e10d 2840
000001f0: 8d41 a7bf 93cb 053f 30d4 4640 cc34 e8be
00000200: 582c b13f 86c8 a6bf 7445 fc3c cebb 2dbf
00000210: eb12 16bf 9274 80c0 baa9 50c0 d148 7ebf
00000220: b60e 713f 164f 963f d7f9 ea3f de7f 29bf
00000230: 57bf 08bf d58a 2ebf 8dad 14c0 2214 cdbe
00000240: 577d 3bbf 62f4 aa3f 35ac 783f e665 433f
00000250: e41f 6abf cf25 1bbf 7e9f acbe 9ab4 a83f
00000260: 8e27 973e dda5 0b3e 578b f4bf 618d 4c3f
00000270: e69e 76c0 190c debf b5f5 623e 8d01 1840
00000280: e74b 433f 2981 a7be 00a7 81c0 3257 0fc0
00000290: e25d 5b3e f112 033f 3145 4fbf d26e 9ebe
000002a0: 757c 2140 0a42 2b40 163a be3f 2fe5 abbf
000002b0: 8d79 02c0 4da5 43bc 79f5 86c0 abe0 15bf
000002c0: 2c56 5b3e 2e02 8040 5281 bb3f 32f7 b7bd
000002d0: 3e94 e83f 68ea 693e f2e8 3bbf 2212 f8bc
000002e0: bcf5 213f 26e6 193f a02c 40bf cba1 8dbf
000002f0: 38de 7ebf 4456 1340 f8db 34bf 3aef 11bf
00000300: 1346 603f 28fe 28c0 6e8f 28c0 005e c63f
00000310: 12bc 903f b7ab 553f bd4e 10bf 7d7e 5bc0
00000320: 0ae5 4fbd ee1f a53f a04c 5b40 0ac8 f1bc
00000330: 2133 39c0 bcb1 4540 185d 20bf 1618 813f
00000340: 4893 c03f ef42 46bf 8a49 af3f 7457 7740
00000350: 4505 0540 e42f 833f 2cfa c1bf 03e4 bc3e
00000360: fa4b dcbf 870a 23bd 60dd e6be 2048 94bf
00000370: 3528 223e 89ee ba3e 7060 9f3f 1192 c140
00000380: 36bc 2c3f c829 723e 27c6 4fbe 21c1 a13e
00000390: 64d7 19c0 10ca 2b3e 820e 8dbf 9b9d de3e
000003a0: 0277 a7bf e7ff 0a3d 1478 e03e 9853 a53f
000003b0: 8d8a d4bd 6868 463e 1121 1bc0 ee11 233b
000003c0: fe00 36bf 5673 943f 71d3 1abf 9a99 f7bf
000003d0: b68f 11bf 40a3 8d3d e665 bf3e 9578 eebe
000003e0: b53d 36bf 921a 883f 26b5 79bf 68cd a33d
000003f0: b044 673e 2aae 61be 8857 7a3f 8e9d 92bf
-4.4307256 0.8321562 -0.7315923 4.23198 0.36092412 0.094336316 -0.63399976 -3.2592785
0.27197978 0.061287235 0.1995505 0.16276559 3.6185143 0.3582694 0.42330858 -3.2729309
-3.3516145 -1.4298718 -0.07103706 -2.1826298 -1.5133204 -1.4569725 -1.8710233 -0.41970637
0.25729704 2.5487618 0.3010226 0.30133402 -0.97632015 1.5092347 -0.94486904 0.689195
1.524337 -0.14329591 -1.0110513 -0.1692401 -2.6206183 2.21999 0.20562844 2.5077705
-2.6243157 -0.12970856 1.5407983 -0.16006301 -0.1862327 -2.258083 0.1409788 0.11406071
0.94514424 4.098626 0.84352344 -2.1217237 -3.3241801 0.39777458 -0.3246576 1.0424784
-0.11982437 0.20479324 -1.9596388 0.41463163 -2.5668697 2.5253828 0.24891777 -1.5085822
-0.32947725 0.3171777 -0.938126 0.15193918 -0.92807627 0.5177436 -2.5703995 0.9763907
0.87359834 -2.3981633 -2.528976 -1.0420274 1.2151864 0.5125973 -2.1748118 2.5440066
0.9891822 3.1080964 -2.0607567 1.2209505 -0.8120549 4.3774595 2.0730937 0.3494219
-0.65446377 -0.82135993 -0.6458601 -0.6460322 -1.5145152 2.1413205 3.5277705 -0.7638527
-0.124783866 1.5541446 1.4510748 0.31956723 -1.3767598 -0.6194146 0.83374065 1.1668966
0.06960453 -1.9400389 -1.2915626 -0.16541901 3.10794 3.19487 -0.018660266 -2.9607186
-3.0822563 -0.19332755 -1.5719922 -0.076756746 0.11162199 0.4637158 -0.4491247 -1.3132445
-0.060848515 2.4194112 0.45949212 2.625847 -1.306688 0.52263755 3.106701 -0.4535278
1.3841658 -1.3029945 0.030794837 -0.6786469 -0.58622617 -4.01423 -3.2603593 -0.9932986
0.9416307 1.1742885 1.8357495 -0.66210735 -0.5341696 -0.6818059 -2.3230927 -0.40054423
-0.7323813 1.335583 0.9713777 0.7632736 -0.9145491 -0.60604566 -0.33715433 1.3180115
0.29522365 0.1363749 -1.9105023 0.7990323 -3.8534484 -1.7347442 0.22164042 2.3750947
0.7628769 -0.3271573 -4.0516357 -2.239697 0.21422532 0.5120078 -0.8096495 -0.30943924
2.5232213 2.6759057 1.4861476 -1.3429316 -2.0386689 -0.011941266 -4.217465 -0.5854594
0.2141959 4.000266 1.464884 -0.08982696 1.817024 0.22843325 -0.7340232 -0.030282084
0.63265586 0.60116804 -0.7506809 -1.1065 -0.9955783 2.3021402 -0.70648146 -0.57005656
0.87606925 -2.6405125 -2.6337543 1.5497437 1.1307395 0.8346514 -0.56370145 -3.4295952
-0.050755538 1.2900369 3.4265518 -0.029514331 -2.8937457 3.088973 -0.6264205 1.0085475
1.5044947 -0.7744588 1.3694317 3.8647127 2.0784466 1.024899 -1.5154471 0.3689271
-1.7210686 -0.03980496 -0.4509077 -1.1584511 0.1583565 0.36510113 1.2451305 6.0490804
0.6747469 0.23648751 -0.20290433 0.31592658 -2.4037714 0.167763 -1.1020052 0.43479618
-1.3083193 0.033935454 0.43841612 1.2916136 -0.10377989 0.19375765 -2.4238932 0.0024882513
-0.71095264 1.1597698 -0.60478884 -1.934375 -0.5685991 0.06915903 0.3738243 -0.46576372
-0.7118791 1.0633109 -0.97542036 0.079981625 0.22584796 -0.22039095 0.9778981 -1.1454332

critic.v_net.fcs.0.bias f4 [64]
00000000: 720a 823f 6039 43c0 32f0 50be f449 3540
00000010: 8e6e 953f 0a16 1dc0 97c6 9a3f b02f 5b3f
00000020: c47e 953e 8e42 0640 8c47 bb3f 7c0f 97c0
00000030: 7180 dd3f 4f2c 123f cae0 f7bf aa06 10bf
00000040: 95f1 5b3e 5c1b 3a40 f366 a6bf 88c2 b2bf
00000050: a0af d0bd f3d5 e9bf 039e 343f 38d5 5ebf
00000060: 2186 21c0 ccf2 bebf 0b9e 233f 475c 5e40
00000070: 3c47 d83f 4e19 983e 84e4 b73e cf3b 1e3f
00000080: f28d 7ebe 09d7 39be 1ab1 0640 e37b a23f
00000090: 711a 16be f71d c2bf 598c 0240 e692 c9bf
000000a0: ae0c 65c0 0bae 0b40 5f52 0940 317c 9bbf
000000b0: 79d0 9a3f 8874 68bf d938 6dbf abdc f23f
000000c0: bfd2 3ec0 ef18 803f ec4a 05bf 9854 bd3f
000000d0: baf9 30c0 0177 2cc0 8c13 c93d c168 3140
000000e0: 0b4c 86bc b991 0cc0 064c f6bf 6777 0040
000000f0: 28d2 eb3f 0c09 1740 684d 5140 e4ba f93f
1.0159438 -3.050377 -0.20404127 2.8326387 1.1674364 -2.4544702 1.2091855 0.8561964
0.29198277 2.0978122 1.4631209 -4.72064 1.7304822 0.5709886 -1.9365475 -0.5626017
0.21478875 2.90792 -1.3000168 -1.3965616 -0.10189748 -1.8268417 0.70553607 -0.87044096
-2.5238116 -1.4917846 0.6391303 3.4743822 1.6896739 0.29706806 0.3591653 0.6181001
-0.24858835 -0.18148436 2.1045594 1.2694057 -0.14658524 -1.5165395 2.0398161 -1.5747955
-3.578899 2.1824977 2.1456525 -1.2147275 1.2094871 -0.9080281 -0.9266487 1.8973593
-2.981613 1.0007609 -0.52067447 1.4791441 -2.765242 -2.6947634 0.098181814 2.7720187
-0.016393682 -2.1963942 -1.924195 2.0072877 1.842351 2.3599272 3.2703495 1.951016

critic.v_net.fcs.1.weight f4 [64, 64]
00000000: 9ee5 3840 875c 2540 e1b0 643e 9851 2a40
00000010: 2b4c 70be 8c93 1140 7178 c6be f69a c33e
00000020: 522b 0a3f 85a7 a23f 975c 6b3d 745d d93e
00000030: 11b7 8fbf a855 643f cac5 1440 d783 cb3e
00000040: bf79 1f3f 0c14 90bf fff0 ac3f 41b6 9bbf
00000050: c100 cd3e 4787 4fbf 82f3 00c0 43fd 8b3e
00000060: eae6 323f 9fae f8bf 8015 9d3f e510 a83f
00000070: e455 f5be f941 92bf c731 88bf ee19 0740
00000080: 8fb1 2f3f dba9 82bf 08d5 9fbf e662 c2bf
00000090: 035b 193f e81e 32bd 39b3 ea3f cb34 5a3f
000000a0: 066f 36c0 9a69 9b3f 9413 853f 1897 013f
000000b0: 4ca0 00bf 996b b13f 2480 0ac0 d5a1 323d
000000c0: 8a57 6cbf 027c 07bf b731 e73f b988 983f
000000d0: d3c6 a23f 3f58 a1bf 1475 aa3f 5ce0 2a3c
000000e0: a2cb e23f 8d53 9ebf 6b88 763e e9f1 253f
000000f0: 1410 3dbf 7e53 83bf 00f3 3b40 8473 2abd
00000100: 5262 3440 b5a0 3840 9acc 30be 6cce 693f
00000110: 4729 4cc0 244f 84bf 57bc c5be 59b4 e03f
00000120: 381c 7ebe 9d26 493f e53a 01c0 af59 3ec0
00000130: ec62 10c0 a328 18c0 dc88 883e 139d 2ebf
00000140: 6c04 bfbe 6db8 e9bf 3e51 fe3d 201b 7b3f
00000150: ae40 6b3f b3c7 07c0 e1a0 40c0 e325 0d40
00000160: 082d 0c40 22dc b03d 4198 973f 1a96 76c0
00000170: c52f 1c3f 8aa1 ea3e 09c1 79bf 9b14 bcbf
00000180: f114 873f b7d7 8ec0 1a9d 363f b2fe 2f40
00000190: 0b84 28bf c685 fe3c 8cde aabf 2d4b d03e
000001a0: 12b4 e5bf dad8 0d40 5e2c 5fbf b612 2340
000001b0: 93d3 76be 9f84 343e 5ad6 39c0 415b 52be
000001c0: 46bd 26bf 1d83 26bf 3119 23c0 abd1 843c
000001d0: 68cf 50bf 5249 2bbf d777 38bf c4ee 8ebf
000001e0: 52d2 bc3f c429 2ac0 2197 90bf 4af7 0dc0
000001f0: 82ac 173f 706e 38bf ebd4 fa3f 7fa1 0640
00000200: 9490 6dbe 864f 0ac0 da6b 213f 091b 18c0
00000210: 67d4 0a40 46d4 3b3f 74dd e83f 0830 69bf
00000220: eac2 ce3f 37f8 d03c 337e c53e ad38 d4be
00000230: f76d 663f 2ae7 37c0 772d 223e 5268 403f
00000240: 4a3d b7bf f339 9abf ddb8 65c0 9909 d23d
00000250: 326e 96bf 0e3d 1040 2981 0b40 90aa 99bf
00000260: aa3b 8dbf 1be2 a2bf 8cdd c1bf 1cd1 193d
00000270: 695f bb3e d5d1 5b40 e16c 963e 6f01 64bf
00000280: f2ba ed3f 8b86 153f 5a3b d0bf 6128 fe3e
00000290: 3ca4 b1bd 5ce5 243e 62f6 3940 c3d8 19bf
000002a0: 618a 03bf 8bdf 08c0 8a58 c03f 6dd4 403f
000002b0: 7405 c63e ecb4 4640 3c98 0d40 3fd8 9c3f
000002c0: eb62 be3f 9bdf 33bf 0671 1ec0 3f88 933c
000002d0: 0d4e 863f 8def eb3f f072 1e3f 3b96 e9bf
000002e0: fc08 8b3e 7065 c13e e517 08be 7286 6640
000002f0: 1604 7140 4552 43bd 3f5c 0d40 8e16 31c0
00000300: 8ce1 3b3f b747 b9bf e3e3 0440 d437 87be
00000310: bad6 b9bf 0dbf a4bf 2bff cc3f bf94 2240
00000320: a855 acbf 2e43 6cbf 2473 1840 98dc 283f
00000330: c4b3 d7bf 9744 16bf d065 b13f 11cf 973e
00000340: 50ab 06be 17a9 3140 7dd2 323f ccd5 08c0
00000350: 956f 2a40 6175 043f f8f9 edbe cc12 813f
00000360: afd6 1dc0 0ced 3e40 4e36 e5bf 94bd 2a3f
00000370: 8954 6a3f b57b 443f 3637 9a3f 7341 75bf
00000380: 89ce 1dbf 9f4c 1b40 b875 6cbf c29c 073c
00000390: 28ce b93f 277b c43f fcf9 a03f 7b01 a93f
000003a0: 4608 7d40 cd20 403d 3183 dbbf 3501 5ebf
000003b0: 8c97 58bf b252 ef3f 00f0 87bf d79e de3e
000003c0: c2fe 97bf 791e 2e3f a9e0 903e 256e 45bf
000003d0: 5cf4 2a40 c7e2 f6bf 22bc 743f 4ba5 cf3f
000003e0: ed1f 6c3e 13fe de3e 365e e03f ca88 3bbd
000003f0: 378c c0bf 6a44 413f f5f2 39be 0b0a 3540
2.8890147 2.5837724 0.22333099 2.66123 -0.23466556 2.2746305 -0.38763765 0.38204163
0.5397235 1.2707373 0.057461347 0.42454112 -1.1227742 0.891932 2.324572 0.39749023
0.62295145 -1.1256118 1.3511046 -1.2164994 0.40039638 -0.8106579 -2.0148625 0.2734166
0.69883597 -1.942829 1.2272186 1.3130156 -0.47917092 -1.1426383 -1.0640191 2.1109576
0.6863031 -1.0208086 -1.2486887 -1.5186431 0.599045 -0.043486506 1.8335944 0.85236806
-2.8505263 1.2141602 1.03966 0.50621176 -0.50244594 1.3860961 -2.164071 0.043611366
-0.92321074 -0.52923596 1.8062047 1.1916724 1.2716926 -1.2605056 1.331698 0.010429468
1.7718394 -1.2369248 0.24075477 0.6482225 -0.7385266 -1.0259855 2.9367065 -0.04161407
2.818501 2.8848088 -0.1726555 0.913306 -3.1900194 -1.0336652 -0.38620254 1.7555038
-0.24815452 0.78574544 -2.0192196 -2.9742239 -2.2560377 -2.3774803 0.26666915 -0.68208426
-0.3730806 -1.8259407 0.124178395 0.98088264 0.9189557 -2.1215637 -3.0098193 2.2054374
2.1902485 0.08635737 1.1843339 -3.8529115 0.6101039 0.4582637 -0.97560173 -1.4693788
1.0553266 -4.4638324 0.7133347 2.7499204 -0.6582648 0.031069648 -1.3349166 0.40682355
-1.7945578 2.2163606 -0.87177074 2.548017 -0.24104147 0.17628716 -2.903708 -0.20542623
-0.6513256 -0.65043813 -2.5484126 0.016213259 -0.81566477 -0.6690875 -0.7205786 -1.1166615
1.4751685 -2.6587992 -1.1296121 -2.2182183 0.592476 -0.72043514 1.9596227 2.103607
-0.23199683 -2.1611037 0.63055193 -2.37665 2.169214 0.7337078 1.8192582 -0.91088915
1.6153233 0.025508983 0.38572845 -0.4144949 0.90011543 -2.8734841 0.15837656 0.7515918
-1.4315579 -1.2048935 -3.5894082 0.10255737 -1.1752379 2.2537265 2.1797583 -1.2005177
-1.1033833 -1.2725252 -1.5145736 0.037552938 0.3659623 3.4346821 0.29379943 -0.8906469
1.8572676 0.5840842 -1.6268113 0.49640182 -0.08673903 0.16103119 2.905663 -0.6009638
-0.51383024 -2.138644 1.502702 0.75324136 0.38676035 3.1047926 2.2124166 1.2253493
1.4873937 -0.7026307 -2.4756484 0.018009303 1.0492569 1.843248 0.6189413 -1.8248972
0.27155292 0.37772703 -0.13290365 3.601956 3.7658744 -0.04768588 2.2087553 -2.7670016
0.7339103 -1.4475011 2.076409 -0.2640978 -1.4518654 -1.2870804 1.6015371 2.5403287
-1.346364 -0.9229001 2.3820276 0.659616 -1.6851735 -0.5869841 1.3859196 0.29650167
-0.13151288 2.7759454 0.6985243 -2.1380491 2.6630604 0.51741606 -0.46479774 1.0083861
-2.4662282 2.9832182 -1.7907197 0.66695523 0.9153524 0.7675126 1.2048099 -0.9580299
-0.6164327 2.4265516 -0.92367125 0.00827712 1.4516039 1.5350083 1.2576289 1.3203577
3.95363 0.04690628 -1.7149411 -0.8672059 -0.8460624 1.8697112 -1.0620117 0.4348056
-1.1874621 0.6801525 0.28296402 -0.7712119 2.6711645 -1.9287957 0.9559957 1.6222318
0.23059054 0.43553218 1.7528751 -0.04578475 -1.504279 0.75495017 -0.18159087 2.828738

critic.v_net.fcs.1.bias f4 [64]
00000000: 7a03 eb3f 6603 9ebf 5e32 61bf 3962 56be
00000010: 453c 0bbf a045 e3be 7cb8 cb3f 1947 6b40
00000020: c049 d63f 0ed0 0a3d 0031 6c40 da15 a93f
00000030: 8bc0 25c0 06ef 1abf b93f c9be e8ce cebf
00000040: a192 b63f b644 d0bf b7ed 363f 598e 32c0
00000050: f5b2 65be 7509 70c0 aeb6 223f 6054 503f
00000060: 3ce6 d4be c369 463f 2919 c43f ee69 4040
00000070: 1a76 b03e 754d 6fbd faab 2d40 123e ed3f
00000080: aee2 883f 0046 f33f 23ce 9d3f 9e37 3c40
00000090: c280 983f 2221 b33f bdfd 38bf 40a8 00bf
000000a0: ed8e e33f 0659 01bf d272 653f 1173 21c0
000000b0: 8613 6740 892d 10bf 2669 66bf 964b 213f
000000c0: 9fa3 4940 cf45 c03e 07d3 8d3f 20e4 8d3e
000000d0: d0cf 3ebf 19c1 0cc0 cbdb c5bd f973 513f
000000e0: 4c00 01be e477 753e 41bd 0940 7a23 21bf
000000f0: cdff a53f 6444 7dbf bf48 2abf 79fb 723e
1.8360436 -1.2344787 -0.8796748 -0.20935906 -0.5438884 -0.44389057 1.5915675 3.6762145
1.6741257 0.033889823 3.6904907 1.3209794 -2.589877 -0.6052097 -0.3930643 -1.6156893
1.4263498 -1.6270969 0.71456474 -2.7899382 -0.22431548 -3.7505772 0.6356 0.81378746
-0.41581905 0.7750513 1.5320178 3.0064654 0.34465104 -0.05842348 2.7136216 1.8534567
1.0694177 1.9005737 1.2328533 2.9408946 1.1914294 1.3994486 -0.72262174 -0.5025673
1.7777992 -0.50526464 0.89628327 -2.522648 3.6105666 -0.5631948 -0.90004194 0.6300596
3.1506116 0.3755326 1.1080025 0.27713108 -0.74535847 -2.1992857 -0.09661063 0.81817585
-0.1259777 0.23971516 2.1521761 -0.6294476 1.2968689 -0.9893248 -0.6651725 0.23728742

critic.v_net.fcs.2.weight f4 [1, 64]
00000000: f353 8e41 39ac a241 0dd0 7d41 d3fb 7941
00000010: 651b 5541 feea 2b41 d58d 65c1 8410 a9c1
00000020: 03b9 7b41 2ba5 8441 4626 aac1 6307 3341
00000030: 78fe 9441 3a1d 43c1 df4a 6141 675c 5541
00000040: 7734 a641 8f68 5fc1 afdd 22c1 d2d4 7f41
00000050: d063 9341 ec4d 8441 11e7 5541 9446 8fc1
00000060: 8caf c141 0916 6ac1 0814 8f41 05db 3e41
00000070: 3702 52c1 da6d a6c1 17e6 10c1 1939 65c1
00000080: 5e74 3741 27c5 b4c1 037a 26c1 8521 8fc1
00000090: 5e7b 80c1 fb0b 5fc1 069f 99c1 a365 3a41
000000a0: 0727 b7c1 a43a 6641 f854 88c1 c6a3 7041
000000b0: 8fa0 bdc1 517a 3c41 06d6 88c1 d0a0 7dc1
000000c0: ef66 b0c1 758e 43c1 f2ea 70c1 2cd8 0541
000000d0: 34ed 0b41 3289 1641 eea2 4241 2ceb 2ac1
000000e0: 724c 76c1 3fc5 52c1 71c5 5841 c338 4441
000000f0: 4a4b 8dc1 33e0 40c1 d25b 6b41 362d 64c1
17.79099 20.334093 15.863294 15.6239805 13.319188 10.744871 -14.347127 -21.133064
15.732669 16.580648 -21.268688 11.189303 18.624252 -12.194635 14.080779 13.335059
20.775618 -13.963027 -10.179122 15.989458 18.423737 16.538048 13.368913 -17.909462
24.210716 -14.63038 17.88478 11.928472 -13.125541 -20.803638 -9.056174 -14.32644
11.46591 -22.596266 -10.404788 -17.891367 -16.060238 -13.940425 -19.202648 11.649814
-22.894056 14.389317 -17.041489 15.039984 -23.703398 11.779862 -17.104504 -15.851761
-22.05026 -12.22228 -15.05736 8.365276 8.745411 9.408495 12.164778 -10.682415
-15.393663 -13.173156 13.548203 12.263858 -17.661762 -12.054736 14.709917 -14.261038

exp_avg f4 [64, 6]
00000000: ba05 a9b9 9bcf 30bb e40e e6ba cd6b 20ba
00000010: 8340 f73a 6689 073a 6e19 2fbb 16d6 9c3a
00000020: ce4e 29bc 1429 6bbb 7cd1 72bb 9944 01bc
00000030: ec37 c9ba 035f 843b e76f 0e3c d77b 413b
00000040: 4d8e d83b 32a0 943c b78b 79bb b236 283c
00000050: 1910 8dbb ae96 c5bb 0de8 d33a ae21 0f3b
00000060: dfbb ffba 45b1 4738 7adf f13b c8cc 6ebb
00000070: f355 43ba c3e2 233b 52bd 5d3a d464 25ba
00000080: 0995 eeba 8672 5939 7e27 e3ba 1f96 f1ba
00000090: 4889 ba3a eca3 e239 c350 2c3c b12d 7a3a
000000a0: 1ca0 773b 80ff 173c 6890 4d38 2d3e 5abb
000000b0: a0b7 93bc 320a 71bb b981 29ba 1f79 c8bc
000000c0: 0eda 20ba 18d5 0b3b 068e c6ba cc7f 753a
000000d0: eedc 1d3b 3320 593b 099f 5b3b e314 a4bb
000000e0: 69e9 7ebc bee4 b43a 60fa deba f514 9cbc
000000f0: daca 173b b557 cdba ba05 573c 3178 c73b
00000100: 0643 10bb a5d6 633c 0853 0936 593d c739
00000110: 4533 96ba 3b0f b53a 2e07 2dba da27 7c3b
00000120: bbff 9b39 38b9 77ba 3345 1bbb 8516 523a
00000130: 5e2a 83ba 9ebf 13bb 0092 62bb c7ed 0b3c
00000140: e1fd b43c a246 353a 4e42 e73b 01f5 c63c
00000150: d8df c53a 60b7 62ba 3160 1bbb e41c 5539
00000160: 23a7 05bb 0816 11bb 1f70 48ba d81f 8f3b
00000170: 53d8 813b 4e1e f4b8 b93b 93ba 4151 353c
00000180: 837e 01bb 94ad c839 57cb c7bb a0bc 12bb
00000190: 5859 44bb c7b0 3dba e6f4 133a e462 4a3b
000001a0: 53a6 3e3c 1ffe 863b afbd 983b 903f ac3b
000001b0: 3039 8eb9 fa7f 733b 7a17 423c ac27 55ba
000001c0: ce7a fc3a 57d9 1f3c fecc a5b9 948c 483b
000001d0: 0120 093c 15cb 313b f9bc 3f3a 413b 383c
000001e0: 2c73 193b d14b 56bb 80a6 1bbc 8e5a aaba
000001f0: 7d21 24bc 3de2 99bc 2558 9a38 fb9d 02bb
00000200: 27c3 34bb dddd 243b 532e 13bb a197 573a
00000210: 2952 3eba 30dc b13a 1e64 e53b bad0 d13a
00000220: a6e6 693a d5c8 5c3c fe7d 9a3b fbd4 8abc
00000230: d2a4 f9bc 826d 13bc 1b83 9fbc edfb 4ebd
00000240: 89ed 35ba b89f 7d3a 66c6 2f3b c0d6 ab39
00000250: 99b8 6a3b f44a fe3b e663 c4ba a1e6 cf3b
00000260: dee7 613c d46c 513b 9619 0a3c 582e ad3c
00000270: f663 3e3b 6cfc cdba 1c58 16bc 8953 203b
00000280: 78dc 973a dfd7 44bc b453 42bb df13 c13c
00000290: c2b0 063d c909 293c 86d3 da3c 43ab 653d
000002a0: b744 07bb 333f 833b dae7 0b3c 3360 4f39
000002b0: 9d99 2f3b 196a 083c 4211 d2ba ee7c b53b
000002c0: 9469 533b 1dff 13bb fa2e 6fb8 9b7b 9d3b
000002d0: 4be7 0b3b 6f16 0bbb 0edc 67bb 474b c039
000002e0: f94e 47bb afd4 f9bb 7241 0cba 5811 9c39
000002f0: 45bb ad3b 7e26 eaba 1c36 dd3a 1c78 f43a
00000300: 4210 98ba bce2 5f3c d975 6d3c 9eba 7f3b
00000310: 6971 813c d7cf ef3c 98b8 a43b dd2e 27bc
00000320: 6817 a1bc 2eed 65bb dc1d 67bc 4e50 0dbd
00000330: 559c 9b3a 739c 38ba 1116 92bb 5491 1b3b
00000340: 3052 92bb 10f2 023b 94fd 843b 907b a8bc
00000350: 9666 3abd c74c 3abc 92b8 a0bc 894a 90bd
00000360: dab6 4cba 49cc d538 bd9c 8fbb 3703 bf3a
00000370: a4b0 51b9 8369 9eba b83a 913b 2a40 73bc
00000380: 0d84 853b 449a 0d3c ef9a b3bb ae10 0bbc
00000390: 4c9d a53a 1a54 36bb 5b86 2e3b 1d7a 3e3a
000003a0: 60d3 84bb 3f94 f13a d217 4ab9 0728 17bb
000003b0: 3e4a 3ebb aef2 283a 56a3 f5ba 86d8 74bb
000003c0: b754 1bba 2175 1fbb 6513 2a3c f8ae 7b39
000003d0: 71f3 2cbb 3fd5 273c 1e79 27ba a068 d4ba
000003e0: dc61 093b f965 43b9 fe2e a8bb a96d 313c
000003f0: fa6d 9a3b 7aaa b2ba 2d2e 343c fc53 a63b
-0.00032238459 -0.0026979211 -0.0017552045 -0.0006119579 0.001886383 0.0005170315 -0.0026718038 0.0011965658
-0.01033373 -0.0035882639 -0.0037051132 -0.00788989 -0.0015351749 0.0040396466 0.008693672 0.0029523277
0.0066087605 0.018142793 -0.0038077661 0.010266947 -0.0043048975 -0.0060299253 0.0016167179 0.0021840143
-0.0019510946 4.7610392e-05 0.007381377 -0.0036437977 -0.0007451467 0.0025006987 0.0008458692 -0.0006309275
-0.0018202375 0.00020737396 -0.0017330495 -0.001843158 0.0014231587 0.0004322821 0.010517302 0.0009543552
0.0037784642 0.009277225 4.9010298e-05 -0.003330122 -0.018031895 -0.0036779759 -0.00064661686 -0.024471818
-0.00061360083 0.002133673 -0.0015148527 0.00093650515 0.0024087983 0.0033130764 0.003351154 -0.0050073727
-0.015558579 0.0013801081 -0.0017011873 -0.019052962 0.002316168 -0.0015666398 0.013123924 0.006087326
-0.0022012605 0.013906156 2.0462921e-06 0.00038001945 -0.0011459371 0.0013813743 -0.0006600496 0.0038475902
0.00029754438 -0.0009449902 -0.002369237 0.000801422 -0.0010007133 -0.0022544633 -0.0034571886 0.008540577
0.022093715 0.0006915127 0.0070574647 0.024286749 0.0015096618 -0.0008648541 -0.0023708458 0.00020324026
-0.002039381 -0.0022138376 -0.0007646102 0.0043678097 0.0039625554 -0.00011640471 -0.0011233009 0.011066736
-0.0019759245 0.00038276298 -0.006097238 -0.0022390261 -0.002996048 -0.000723612 0.00056440977 0.0030881697
0.0116363345 0.004119649 0.004661284 0.0052566007 -0.0002712696 0.0037155137 0.011846418 -0.0008131217
0.0019262673 0.009756408 -0.00031623984 0.003060137 0.008369447 0.0027129103 0.0007314231 0.011244596
0.0023414595 -0.0032698999 -0.009500146 -0.0012996958 -0.01001775 -0.018784637 7.3597104e-05 -0.001993059
-0.002758214 0.0025156655 -0.0022458031 0.00082241936 -0.00072601676 0.0013569649 0.0070004603 0.001600764
0.0008922614 0.013475616 0.0047147265 -0.01694726 -0.0304741 -0.008998277 -0.019471696 -0.050533224
-0.00069399975 0.0009674984 0.0026821136 0.00032775663 0.0035815595 0.0077604 -0.0014983385 0.006344632
0.013788192 0.0031955736 0.008428952 0.021140262 0.002905128 -0.0015715486 -0.00917628 0.0024463853
0.001158609 -0.012014358 -0.0029651942 0.023569046 0.032883413 0.010317274 0.02671219 0.05607153
-0.0020640322 0.0040053367 0.008539164 0.00019776895 0.0026794442 0.008326077 -0.0016026872 0.0055385744
0.0032258974 -0.002258248 -5.702579e-05 0.0048059947 0.0021347578 -0.0021223088 -0.0035378966 0.0003667718
-0.0030412062 -0.007624231 -0.0005350328 0.0002976756 0.0053018653 -0.0017864255 0.0016877088 0.0018651518
-0.0011601525 0.0136648975 0.014493429 0.0039021145 0.015801148 0.02927391 0.005026888 -0.010204044
-0.019664481 -0.0035083997 -0.01410624 -0.034500413 0.0011872152 -0.0007042356 -0.004458197 0.0023737745
-0.004465364 0.0019980706 0.004058549 -0.020566732 -0.04550799 -0.011370844 -0.01961926 -0.070454665
-0.00078092294 0.000101946825 -0.0043826983 0.0014573102 -0.00019997597 -0.0012085888 0.0044320486 -0.014846841
0.0040745796 0.008642737 -0.005481116 -0.0084878635 0.0012635379 -0.0027821125 0.0026630375 0.0007266121
-0.004053518 0.0018431022 -0.00019273095 -0.002306463 -0.002903595 0.00064448535 -0.0018740695 -0.0037360503
-0.0005925404 -0.002433129 0.010380601 0.00024002406 -0.002639022 0.010243713 -0.00063885923 -0.0016205497
0.002096287 -0.00018634637 -0.005132555 0.010829368 0.0047128173 -0.0013631128 0.010997337 0.0050759297

exp_avg_sq f4 [64, 6]
00000000: 030b 9b39 14f3 b139 07d0 303b 446f 4a39
00000010: 8c9a 9839 f95d 783b 80f5 e73a e693 1c3a
00000020: f22a c23b 22e0 a73a 132a 093a d382 c93b
00000030: f386 853a a6b7 963a f834 dc3b 020c 413a
00000040: 2671 393a aaa2 043c aeac ab3a 1ab4 a23a
00000050: 7bc1 b83b 86b9 5a3a 339f 2e3a 0c86 503b
00000060: 047e 0139 a0ea 1438 378f a939 292c fa38
00000070: d1a7 4f38 95db c439 3bb0 7038 0916 3138
00000080: c2b6 c039 3183 9638 89c4 8638 bd87 8039
00000090: cc11 f039 e1ad c039 1b8e 033b 1f0f 7139
000000a0: dd02 a839 dbb2 1e3b 13a7 bc3a c8a5 933a
000000b0: cf5e 103c 1632 283a 0188 4c3a 9954 403c
000000c0: 1cf9 6338 80e2 7138 58a4 cb39 0666 1c38
000000d0: 0f14 3e38 8a1a 0a3a dcc9 323a 8093 223a
000000e0: 8c38 7d3b cdc6 243a 64bf de39 5535 ad3b
000000f0: 0711 ba3a 0215 733a 625d c43b 7562 553a
00000100: 924f 0f3a d6af cf3b 4a1f 8638 b52f 1a38
00000110: 281e aa39 10aa 2238 a6a5 3638 1925 8739
00000120: 68d4 8b38 af2e 7138 6a80 b939 996e 2f38
00000130: 4440 2938 9a2e cd39 a61a 373a e1ab 6c3a
00000140: bd93 a13b f6c9 d739 6e20 353a 977f cd3b
00000150: 69aa af38 2757 4038 5723 163a 0ad7 8e38
00000160: acc5 e038 392f 9839 8be7 c839 634e 8439
00000170: d714 1d3b 3e2d 3e39 2146 2c39 ecaf 493b
00000180: 2ce4 8439 735f d938 f052 083b 3dfa b339
00000190: 5cb2 ad39 bf2a 2c3a 7b16 bd39 99b4 fd39
000001a0: d5d4 853b 5f7b ae39 01a4 dd39 4639 923a
000001b0: 5e23 4239 66d2 4039 d60d b43a 87d2 f938
000001c0: d143 2539 0526 a93a 2006 083a 0cc5 dd39
000001d0: c8ef 343b 2b9a 9139 f5dc ac39 a383 3d3b
000001e0: db91 ce39 9e95 8f3a 5f00 b53b ccca b439
000001f0: b99c 4e3a 082f eb3b 0f1c 9739 10fa e738
00000200: 8408 5b3a 288d 2639 ccca b338 e5e9 1f3a
00000210: 633b ce39 8f16 8b39 d115 013b 93cb 9539
00000220: 1cdf 4b39 6d0e 0e3b 4db5 b93b 7333 ec3b
00000230: f96c 1e3d 2f5f 7b3b 6871 8c3b 033c 523d
00000240: ba72 a639 d767 b839 aaa6 253b 4987 6739
00000250: 664a 9139 d6d6 613b b623 7d3a 695a bc3a
00000260: 4d78 f63b 2a2b 2b3a f071 583a b416 223c
00000270: 2390 c439 fb2f 6c39 e694 d63a aa88 dc39
00000280: 4318 5e39 e56c 1b3b c7fb cd3b 1675 1c3c
00000290: 1139 483d 4531 893b 17f0 b83b d700 883d
000002a0: 5f75 1d39 430c 6539 8495 a43a 0f9b 1539
000002b0: 531a 5239 22e7 9e3a dee7 b639 f74f 9439
000002c0: 34f8 a73a 59ee 6239 e7ad 1339 325f 923a
000002d0: f1d4 2c39 dbc1 6239 9870 b93a ba55 ef38
000002e0: ad64 2b39 0559 083b 700d 8639 714b 0c39
000002f0: 8257 b33a 0ac0 4839 80f3 d538 1c5b f03a
00000300: 03af 9c3a dae4 163b 83bb 3b3c 7624 303a
00000310: 7151 ce3a 735d 863c 3a96 423a 0bed 263b
00000320: fe27 2e3c 266a b539 55ba ed3a 4137 793c
00000330: c6c1 e039 0b73 9639 134e 173b 818f 5139
00000340: 76c2 3639 128f 483b b623 383c 1bbd 603c
00000350: a68b 9a3d 1924 f93b b975 013c 6d7f cd3d
00000360: 5315 8838 7244 0538 70ca 8439 019e 8838
00000370: 2075 2438 4935 9539 1255 173b 4f4e f23a
00000380: c5d9 163c 4bbc b33a 788f 7f3a 736e 853b
00000390: e059 bf38 c2fe 8e38 2d8e 233a ce00 4038
000003a0: a573 9a38 485b bf39 72be 3539 c092 0039
000003b0: b9bb 7d3a a4c5 0b39 06aa 9c38 3be1 8e3a
000003c0: e57b 043a aaf3 2639 4c98 e53a 63f3 ac39
000003d0: 9ef9 3b39 0335 e23a 34f9 b139 e8a0 c738
000003e0: 92b3 d03a 5bb5 5339 15b5 1539 a00f 803a
000003f0: 8c2f 9f3a 267a 033a 960a 763b 9f1c 393a
0.00029572108 0.00033941178 0.0026979463 0.00019305671 0.00029106846 0.003789781 0.0017697066 0.00059729663
0.0059255296 0.0012807886 0.0005232405 0.0061496287 0.0010187313 0.0011498823 0.0067201816 0.0007364155
0.00070740504 0.008095423 0.0013097727 0.0012413294 0.005638299 0.0008343685 0.0006661296 0.003181818
0.00012349343 3.550446e-05 0.00032340895 0.000119291544 4.9508937e-05 0.00037547635 5.7384586e-05 4.222061e-05
0.0003675726 7.176994e-05 6.4262254e-05 0.00024515195 0.00045789627 0.00036750644 0.0020073715 0.00022989184
0.0003204559 0.0024215493 0.0014393054 0.0011264617 0.008811667 0.0006416155 0.00078022486 0.01173892
5.435302e-05 5.7669822e-05 0.00038841623 3.7288315e-05 4.531821e-05 0.0005268237 0.00068202405 0.0006201789
0.003863844 0.0006285727 0.00042485737 0.0052858987 0.0014195748 0.0009272845 0.0059925774 0.00081399764
0.0005466874 0.0063381 6.395446e-05 3.676089e-05 0.00032447395 3.8782193e-05 4.3546454e-05 0.00025776846
6.6676e-05 5.7502355e-05 0.00035381626 4.1826253e-05 4.0352592e-05 0.00039135368 0.0006984867 0.00090282975
0.004930942 0.00041158468 0.00069094345 0.0062713134 8.3763916e-05 4.5857534e-05 0.0005727312 6.811142e-05
0.000107179716 0.00029026883 0.00038319486 0.00025235405 0.002396872 0.00018136666 0.00016429323 0.0030775024
0.00025347003 0.00010365145 0.0020801388 0.00034327983 0.0003313002 0.0006567649 0.00036065638 0.00048390476
0.0040842094 0.00033279785 0.00042274597 0.0011155985 0.00018514457 0.00018388926 0.0013737034 0.00011912459
0.0001576089 0.0012905007 0.0005188901 0.00042299216 0.002760874 0.0002777142 0.00032971022 0.0028917573
0.00039400053 0.0010954624 0.005523726 0.0003448337 0.000788163 0.0071772374 0.0002882187 0.00011061516
0.0008355456 0.00015883578 8.573159e-05 0.00061002217 0.00039335628 0.00026528953 0.0019696841 0.0002857117
0.00019442703 0.002167608 0.0056673647 0.0072082817 0.038678143 0.0038356294 0.00428598 0.051326763
0.00031747465 0.00035172582 0.0025276341 0.00022080274 0.00027711986 0.0034460328 0.00096565054 0.0014370206
0.007521665 0.0006529564 0.0008256724 0.009893108 0.00037491423 0.00022524588 0.001637128 0.00042063493
0.00021180608 0.002371603 0.0062861177 0.0095494 0.048882548 0.0041867816 0.0056438553 0.06640785
0.00015016411 0.0002184371 0.0012556766 0.00014267511 0.00020036967 0.0012123326 0.000348865 0.00028288338
0.0012815059 0.00021641831 0.00014083796 0.0011167286 0.00016482525 0.00021625256 0.0014147935 0.00011412376
0.00016345335 0.0020805013 0.00025568483 0.00013379545 0.0013682696 0.00019145026 0.00010201987 0.00183377
0.0011954013 0.002302459 0.0114582805 0.00067193 0.0015740824 0.016401982 0.0007422898 0.0025470878
0.010629652 0.00034602097 0.0018137196 0.015210927 0.00042868982 0.00028695943 0.0023087307 0.00019985253
0.00017429315 0.0030602855 0.011238983 0.013716961 0.07546167 0.00760318 0.007901602 0.1003407
6.488957e-05 3.1773416e-05 0.0002532783 6.514416e-05 3.9209728e-05 0.00028459195 0.0023091477 0.0018486473
0.009207194 0.0013712732 0.00097488565 0.0040720045 9.12433e-05 6.81854e-05 0.00062391424 4.5777117e-05
7.364833e-05 0.0003649837 0.00017332452 0.000122617 0.0009679157 0.000133297 7.470329e-05 0.0010900864
0.0005053862 0.00015921766 0.0017516701 0.00032987734 0.000179267 0.001725823 0.00033945742 9.5190306e-05
0.0015922657 0.00020190088 0.00014277206 0.0009770282 0.0012144907 0.0005015455 0.003754293 0.0007061455

exp_avg f4 [64]
00000000: ca82 e8bb 7fd6 47ba d1b6 15bc af05 003c
00000010: d1b4 c33a 7a89 42bb b11a c2ba 4920 d83a
00000020: b442 b9ba bbaf af3b 7965 03bc 9230 49ba
00000030: 5274 893a 006a b5bb 1073 bcbb 95b4 f43b
00000040: 9ee4 87bb 3546 013b f364 483b ee6d 08bb
00000050: fa34 fc3b adb5 f33a 77ff c9bb ac81 b03c
00000060: 06b4 20bc e8b7 38bc 3bbe 673b 9b94 a8bc
00000070: 57f1 92bb cc9c 5b3b 68e1 9c3b 8459 e439
00000080: 567a 6bbc 66dd 813c 3059 26ba 8ceb eb3c
00000090: c8e5 62bb 97bd d6bb 87c6 caba bd8c 2c39
000000a0: ba9d 5aba 72f2 09bc 832d 71b8 197c 633b
000000b0: e0c8 47bc f8ad 8c3b 5303 dbbb f461 333b
000000c0: 8f6a 8cba 74f6 a23b edb9 0fbb e932 96bc
000000d0: 96d1 4d3c eafc 903b 803e ac3b 0ff8 56ba
000000e0: 6117 383c 3785 87b8 05ab e3ba 2498 1c3c
000000f0: 5980 3f3c a9bc 1d3c a1d1 ebba 5d23 25bc
-0.0070956694 -0.000762321 -0.009137825 0.007813855 0.0014931207 -0.0029683993 -0.001480898 0.0016489114
-0.0014134259 0.005361525 -0.008019798 -0.0007674779 0.0010486937 -0.005536318 -0.005751021 0.007467816
-0.0041471263 0.0019725685 0.0030577749 -0.0020817476 0.007696745 0.0018593572 -0.006164487 0.021546207
-0.009808546 -0.011274315 0.003536119 -0.020578673 -0.0044843364 0.0033510206 0.0047876127 0.00043554243
-0.014372429 0.015852641 -0.00063456874 0.028798841 -0.0034621824 -0.0065533626 -0.0015470543 0.00016455627
-0.0008339543 -0.00841962 -5.7501264e-05 0.003471142 -0.012193888 0.0042931996 -0.006683746 0.0027371617
-0.0010712909 0.004973227 -0.0021930889 -0.018334823 0.012562176 0.004424681 0.005256474 -0.0008200416
0.011236043 -6.462115e-05 -0.0017369693 0.0095577575 0.011688315 0.0096275 -0.0017991551 -0.010079232

exp_avg_sq f4 [64]
00000000: e3ec 333a 7929 353b 0b24 0c3b c820 593b
00000010: 2fcd 7839 e0ae 5f39 a292 9c3a 152a 2e3b
00000020: 3ea8 f738 c297 b33a 6206 1f3b 791b 0c39
00000030: 6e04 1139 1957 d43a 0a51 a439 bd3b 383a
00000040: 4e95 7f3a 2700 8c3a 4429 0c3a 5ca1 8e3a
00000050: 095f c93a 2def 083a 30f0 383a d2f2 3d3c
00000060: 5e09 373a 0f1a 0e3b a3f6 413a e4c5 603c
00000070: e6f6 dc39 963a 703a 421f cf39 dc11 053a
00000080: 7f80 4a3b d290 453b d792 4d3a 9a8d b63c
00000090: 6cad 4439 d3cf ab3b b0c2 6c39 2f69 bb39
000000a0: 7718 723a 2779 313a d189 243b 9d5b 893a
000000b0: a3a4 8b3b ed87 b139 0855 443a 8b0d 9b3a
000000c0: 5344 863a a3fc 8c3a 2693 163a bd67 d23b
000000d0: b68c ec3a 1c04 993a 1664 523a f485 a93a
000000e0: 874c 493b e114 4935 c923 4739 70a1 143a
000000f0: 129b 473a 814f 3d3b d706 e039 7f9e 273b
0.0006863607 0.0027643128 0.0021383788 0.0033131111 0.0002372756 0.00021332083 0.0011945555 0.0026575376
0.00011809215 0.0013701844 0.002426528 0.00013361675 0.00013829928 0.0016200274 0.00031340896 0.00070279447
0.0009749726 0.0010681198 0.0005346725 0.0010881829 0.0015363406 0.0005223628 0.00070548337 0.011593537
0.0006982292 0.0021683013 0.00073991175 0.013719056 0.00042145624 0.00091640034 0.00039505406 0.00050762086
0.0030899344 0.0030146134 0.000784201 0.022284318 0.00018756621 0.0052432804 0.0002257924 0.00035745787
0.0009235213 0.0006770067 0.002510656 0.0010479573 0.0042615696 0.00033861343 0.0007489477 0.0011829598
0.0010243751 0.0010756444 0.0005743973 0.006421058 0.0018047306 0.0011674198 0.0008025778 0.0012933598
0.003071578 7.490872e-07 0.0001899145 0.0005669808 0.0007614355 0.00288865 0.00042729705 0.0025576649
